<net name="SSD_GoogleNet_v2" version="2" batch="1">
    <layers>
        <layer name="data" type="Input" precision="FP32" id="0">
            <output>
                <port id="0">
                    <dim>1</dim>
                    <dim>3</dim>
                    <dim>300</dim>
                    <dim>300</dim>
                </port>
            </output>
        </layer>
        <layer name="conv1_7x7_s2" type="Convolution" precision="FP32" id="1">
            <convolution_data stride-x="2" stride-y="2" pad-x="3" pad-y="3" kernel-x="7" kernel-y="7" output="64" group="1"/>
            <input>
                <port id="1">
                    <dim>1</dim>
                    <dim>3</dim>
                    <dim>300</dim>
                    <dim>300</dim>
                </port>
            </input>
            <output>
                <port id="2">
                    <dim>1</dim>
                    <dim>64</dim>
                    <dim>150</dim>
                    <dim>150</dim>
                </port>
            </output>
            <weights offset="0" size="37632"/>
            <biases offset="37632" size="256"/>
        </layer>
        <layer name="conv1_7x7_s2_bn_sc_relu" type="ReLU" precision="FP32" id="4">
            <input>
                <port id="7">
                    <dim>1</dim>
                    <dim>64</dim>
                    <dim>150</dim>
                    <dim>150</dim>
                </port>
            </input>
            <output>
                <port id="8">
                    <dim>1</dim>
                    <dim>64</dim>
                    <dim>150</dim>
                    <dim>150</dim>
                </port>
            </output>
        </layer>
        <layer name="pool1_3x3_s2" type="Pooling" precision="FP32" id="5">
            <pooling_data kernel-x="3" kernel-y="3" pad-x="0" pad-y="0" stride-x="2" stride-y="2" rounding-type="ceil" pool-method="max"/>
            <input>
                <port id="9">
                    <dim>1</dim>
                    <dim>64</dim>
                    <dim>150</dim>
                    <dim>150</dim>
                </port>
            </input>
            <output>
                <port id="10">
                    <dim>1</dim>
                    <dim>64</dim>
                    <dim>75</dim>
                    <dim>75</dim>
                </port>
            </output>
        </layer>
        <layer name="conv2_3x3_reduce" type="Convolution" precision="FP32" id="6">
            <convolution_data stride-x="1" stride-y="1" pad-x="0" pad-y="0" kernel-x="1" kernel-y="1" output="64" group="1"/>
            <input>
                <port id="11">
                    <dim>1</dim>
                    <dim>64</dim>
                    <dim>75</dim>
                    <dim>75</dim>
                </port>
            </input>
            <output>
                <port id="12">
                    <dim>1</dim>
                    <dim>64</dim>
                    <dim>75</dim>
                    <dim>75</dim>
                </port>
            </output>
            <weights offset="37888" size="16384"/>
            <biases offset="54272" size="256"/>
        </layer>
        <layer name="conv2_3x3_reduce_bn_sc_relu" type="ReLU" precision="FP32" id="9">
            <input>
                <port id="17">
                    <dim>1</dim>
                    <dim>64</dim>
                    <dim>75</dim>
                    <dim>75</dim>
                </port>
            </input>
            <output>
                <port id="18">
                    <dim>1</dim>
                    <dim>64</dim>
                    <dim>75</dim>
                    <dim>75</dim>
                </port>
            </output>
        </layer>
        <layer name="conv2_3x3" type="Convolution" precision="FP32" id="10">
            <convolution_data stride-x="1" stride-y="1" pad-x="1" pad-y="1" kernel-x="3" kernel-y="3" output="192" group="1"/>
            <input>
                <port id="19">
                    <dim>1</dim>
                    <dim>64</dim>
                    <dim>75</dim>
                    <dim>75</dim>
                </port>
            </input>
            <output>
                <port id="20">
                    <dim>1</dim>
                    <dim>192</dim>
                    <dim>75</dim>
                    <dim>75</dim>
                </port>
            </output>
            <weights offset="54528" size="442368"/>
            <biases offset="496896" size="768"/>
        </layer>
        <layer name="conv2_3x3_bn_sc_relu" type="ReLU" precision="FP32" id="13">
            <input>
                <port id="25">
                    <dim>1</dim>
                    <dim>192</dim>
                    <dim>75</dim>
                    <dim>75</dim>
                </port>
            </input>
            <output>
                <port id="26">
                    <dim>1</dim>
                    <dim>192</dim>
                    <dim>75</dim>
                    <dim>75</dim>
                </port>
            </output>
        </layer>
        <layer name="pool2_3x3_s2" type="Pooling" precision="FP32" id="14">
            <pooling_data kernel-x="3" kernel-y="3" pad-x="0" pad-y="0" stride-x="2" stride-y="2" rounding-type="ceil" pool-method="max"/>
            <input>
                <port id="27">
                    <dim>1</dim>
                    <dim>192</dim>
                    <dim>75</dim>
                    <dim>75</dim>
                </port>
            </input>
            <output>
                <port id="28">
                    <dim>1</dim>
                    <dim>192</dim>
                    <dim>37</dim>
                    <dim>37</dim>
                </port>
            </output>
        </layer>
        <layer name="inception_3a_pool" type="Pooling" precision="FP32" id="39">
            <pooling_data kernel-x="3" kernel-y="3" pad-x="1" pad-y="1" stride-x="1" stride-y="1" rounding-type="ceil" pool-method="avg"/>
            <input>
                <port id="77">
                    <dim>1</dim>
                    <dim>192</dim>
                    <dim>37</dim>
                    <dim>37</dim>
                </port>
            </input>
            <output>
                <port id="78">
                    <dim>1</dim>
                    <dim>192</dim>
                    <dim>37</dim>
                    <dim>37</dim>
                </port>
            </output>
        </layer>
        <layer name="inception_3a_pool_proj" type="Convolution" precision="FP32" id="40">
            <convolution_data stride-x="1" stride-y="1" pad-x="0" pad-y="0" kernel-x="1" kernel-y="1" output="32" group="1"/>
            <input>
                <port id="79">
                    <dim>1</dim>
                    <dim>192</dim>
                    <dim>37</dim>
                    <dim>37</dim>
                </port>
            </input>
            <output>
                <port id="80">
                    <dim>1</dim>
                    <dim>32</dim>
                    <dim>37</dim>
                    <dim>37</dim>
                </port>
            </output>
            <weights offset="1347328" size="24576"/>
            <biases offset="1371904" size="128"/>
        </layer>
        <layer name="inception_3a_pool_proj_bn_sc_relu" type="ReLU" precision="FP32" id="43">
            <input>
                <port id="85">
                    <dim>1</dim>
                    <dim>32</dim>
                    <dim>37</dim>
                    <dim>37</dim>
                </port>
            </input>
            <output>
                <port id="86">
                    <dim>1</dim>
                    <dim>32</dim>
                    <dim>37</dim>
                    <dim>37</dim>
                </port>
            </output>
        </layer>
        <layer name="inception_3a_double3x3_reduce" type="Convolution" precision="FP32" id="27">
            <convolution_data stride-x="1" stride-y="1" pad-x="0" pad-y="0" kernel-x="1" kernel-y="1" output="64" group="1"/>
            <input>
                <port id="53">
                    <dim>1</dim>
                    <dim>192</dim>
                    <dim>37</dim>
                    <dim>37</dim>
                </port>
            </input>
            <output>
                <port id="54">
                    <dim>1</dim>
                    <dim>64</dim>
                    <dim>37</dim>
                    <dim>37</dim>
                </port>
            </output>
            <weights offset="744192" size="49152"/>
            <biases offset="793344" size="256"/>
        </layer>
        <layer name="inception_3a_double3x3_reduce_bn_sc_relu" type="ReLU" precision="FP32" id="30">
            <input>
                <port id="59">
                    <dim>1</dim>
                    <dim>64</dim>
                    <dim>37</dim>
                    <dim>37</dim>
                </port>
            </input>
            <output>
                <port id="60">
                    <dim>1</dim>
                    <dim>64</dim>
                    <dim>37</dim>
                    <dim>37</dim>
                </port>
            </output>
        </layer>
        <layer name="inception_3a_double3x3a" type="Convolution" precision="FP32" id="31">
            <convolution_data stride-x="1" stride-y="1" pad-x="1" pad-y="1" kernel-x="3" kernel-y="3" output="96" group="1"/>
            <input>
                <port id="61">
                    <dim>1</dim>
                    <dim>64</dim>
                    <dim>37</dim>
                    <dim>37</dim>
                </port>
            </input>
            <output>
                <port id="62">
                    <dim>1</dim>
                    <dim>96</dim>
                    <dim>37</dim>
                    <dim>37</dim>
                </port>
            </output>
            <weights offset="793600" size="221184"/>
            <biases offset="1014784" size="384"/>
        </layer>
        <layer name="inception_3a_double3x3a_bn_sc_relu" type="ReLU" precision="FP32" id="34">
            <input>
                <port id="67">
                    <dim>1</dim>
                    <dim>96</dim>
                    <dim>37</dim>
                    <dim>37</dim>
                </port>
            </input>
            <output>
                <port id="68">
                    <dim>1</dim>
                    <dim>96</dim>
                    <dim>37</dim>
                    <dim>37</dim>
                </port>
            </output>
        </layer>
        <layer name="inception_3a_double3x3b" type="Convolution" precision="FP32" id="35">
            <convolution_data stride-x="1" stride-y="1" pad-x="1" pad-y="1" kernel-x="3" kernel-y="3" output="96" group="1"/>
            <input>
                <port id="69">
                    <dim>1</dim>
                    <dim>96</dim>
                    <dim>37</dim>
                    <dim>37</dim>
                </port>
            </input>
            <output>
                <port id="70">
                    <dim>1</dim>
                    <dim>96</dim>
                    <dim>37</dim>
                    <dim>37</dim>
                </port>
            </output>
            <weights offset="1015168" size="331776"/>
            <biases offset="1346944" size="384"/>
        </layer>
        <layer name="inception_3a_double3x3b_bn_sc_relu" type="ReLU" precision="FP32" id="38">
            <input>
                <port id="75">
                    <dim>1</dim>
                    <dim>96</dim>
                    <dim>37</dim>
                    <dim>37</dim>
                </port>
            </input>
            <output>
                <port id="76">
                    <dim>1</dim>
                    <dim>96</dim>
                    <dim>37</dim>
                    <dim>37</dim>
                </port>
            </output>
        </layer>
        <layer name="inception_3a_3x3_reduce" type="Convolution" precision="FP32" id="19">
            <convolution_data stride-x="1" stride-y="1" pad-x="0" pad-y="0" kernel-x="1" kernel-y="1" output="64" group="1"/>
            <input>
                <port id="37">
                    <dim>1</dim>
                    <dim>192</dim>
                    <dim>37</dim>
                    <dim>37</dim>
                </port>
            </input>
            <output>
                <port id="38">
                    <dim>1</dim>
                    <dim>64</dim>
                    <dim>37</dim>
                    <dim>37</dim>
                </port>
            </output>
            <weights offset="547072" size="49152"/>
            <biases offset="596224" size="256"/>
        </layer>
        <layer name="inception_3a_3x3_reduce_bn_sc_relu" type="ReLU" precision="FP32" id="22">
            <input>
                <port id="43">
                    <dim>1</dim>
                    <dim>64</dim>
                    <dim>37</dim>
                    <dim>37</dim>
                </port>
            </input>
            <output>
                <port id="44">
                    <dim>1</dim>
                    <dim>64</dim>
                    <dim>37</dim>
                    <dim>37</dim>
                </port>
            </output>
        </layer>
        <layer name="inception_3a_3x3" type="Convolution" precision="FP32" id="23">
            <convolution_data stride-x="1" stride-y="1" pad-x="1" pad-y="1" kernel-x="3" kernel-y="3" output="64" group="1"/>
            <input>
                <port id="45">
                    <dim>1</dim>
                    <dim>64</dim>
                    <dim>37</dim>
                    <dim>37</dim>
                </port>
            </input>
            <output>
                <port id="46">
                    <dim>1</dim>
                    <dim>64</dim>
                    <dim>37</dim>
                    <dim>37</dim>
                </port>
            </output>
            <weights offset="596480" size="147456"/>
            <biases offset="743936" size="256"/>
        </layer>
        <layer name="inception_3a_3x3_bn_sc_relu" type="ReLU" precision="FP32" id="26">
            <input>
                <port id="51">
                    <dim>1</dim>
                    <dim>64</dim>
                    <dim>37</dim>
                    <dim>37</dim>
                </port>
            </input>
            <output>
                <port id="52">
                    <dim>1</dim>
                    <dim>64</dim>
                    <dim>37</dim>
                    <dim>37</dim>
                </port>
            </output>
        </layer>
        <layer name="inception_3a_1x1" type="Convolution" precision="FP32" id="15">
            <convolution_data stride-x="1" stride-y="1" pad-x="0" pad-y="0" kernel-x="1" kernel-y="1" output="64" group="1"/>
            <input>
                <port id="29">
                    <dim>1</dim>
                    <dim>192</dim>
                    <dim>37</dim>
                    <dim>37</dim>
                </port>
            </input>
            <output>
                <port id="30">
                    <dim>1</dim>
                    <dim>64</dim>
                    <dim>37</dim>
                    <dim>37</dim>
                </port>
            </output>
            <weights offset="497664" size="49152"/>
            <biases offset="546816" size="256"/>
        </layer>
        <layer name="inception_3a_1x1_bn_sc_relu" type="ReLU" precision="FP32" id="18">
            <input>
                <port id="35">
                    <dim>1</dim>
                    <dim>64</dim>
                    <dim>37</dim>
                    <dim>37</dim>
                </port>
            </input>
            <output>
                <port id="36">
                    <dim>1</dim>
                    <dim>64</dim>
                    <dim>37</dim>
                    <dim>37</dim>
                </port>
            </output>
        </layer>
        <layer name="inception_3a_output" type="Concat" precision="FP32" id="44">
            <concat_data axis="1"/>
            <input>
                <port id="87">
                    <dim>1</dim>
                    <dim>64</dim>
                    <dim>37</dim>
                    <dim>37</dim>
                </port>
                <port id="88">
                    <dim>1</dim>
                    <dim>64</dim>
                    <dim>37</dim>
                    <dim>37</dim>
                </port>
                <port id="89">
                    <dim>1</dim>
                    <dim>96</dim>
                    <dim>37</dim>
                    <dim>37</dim>
                </port>
                <port id="90">
                    <dim>1</dim>
                    <dim>32</dim>
                    <dim>37</dim>
                    <dim>37</dim>
                </port>
            </input>
            <output>
                <port id="91">
                    <dim>1</dim>
                    <dim>256</dim>
                    <dim>37</dim>
                    <dim>37</dim>
                </port>
            </output>
        </layer>
        <layer name="inception_3b_pool" type="Pooling" precision="FP32" id="69">
            <pooling_data kernel-x="3" kernel-y="3" pad-x="1" pad-y="1" stride-x="1" stride-y="1" rounding-type="ceil" pool-method="avg"/>
            <input>
                <port id="140">
                    <dim>1</dim>
                    <dim>256</dim>
                    <dim>37</dim>
                    <dim>37</dim>
                </port>
            </input>
            <output>
                <port id="141">
                    <dim>1</dim>
                    <dim>256</dim>
                    <dim>37</dim>
                    <dim>37</dim>
                </port>
            </output>
        </layer>
        <layer name="inception_3b_pool_proj" type="Convolution" precision="FP32" id="70">
            <convolution_data stride-x="1" stride-y="1" pad-x="0" pad-y="0" kernel-x="1" kernel-y="1" output="64" group="1"/>
            <input>
                <port id="142">
                    <dim>1</dim>
                    <dim>256</dim>
                    <dim>37</dim>
                    <dim>37</dim>
                </port>
            </input>
            <output>
                <port id="143">
                    <dim>1</dim>
                    <dim>64</dim>
                    <dim>37</dim>
                    <dim>37</dim>
                </port>
            </output>
            <weights offset="2344704" size="65536"/>
            <biases offset="2410240" size="256"/>
        </layer>
        <layer name="inception_3b_pool_proj_bn_sc_relu" type="ReLU" precision="FP32" id="73">
            <input>
                <port id="148">
                    <dim>1</dim>
                    <dim>64</dim>
                    <dim>37</dim>
                    <dim>37</dim>
                </port>
            </input>
            <output>
                <port id="149">
                    <dim>1</dim>
                    <dim>64</dim>
                    <dim>37</dim>
                    <dim>37</dim>
                </port>
            </output>
        </layer>
        <layer name="inception_3b_double3x3_reduce" type="Convolution" precision="FP32" id="57">
            <convolution_data stride-x="1" stride-y="1" pad-x="0" pad-y="0" kernel-x="1" kernel-y="1" output="64" group="1"/>
            <input>
                <port id="116">
                    <dim>1</dim>
                    <dim>256</dim>
                    <dim>37</dim>
                    <dim>37</dim>
                </port>
            </input>
            <output>
                <port id="117">
                    <dim>1</dim>
                    <dim>64</dim>
                    <dim>37</dim>
                    <dim>37</dim>
                </port>
            </output>
            <weights offset="1725184" size="65536"/>
            <biases offset="1790720" size="256"/>
        </layer>
        <layer name="inception_3b_double3x3_reduce_bn_sc_relu" type="ReLU" precision="FP32" id="60">
            <input>
                <port id="122">
                    <dim>1</dim>
                    <dim>64</dim>
                    <dim>37</dim>
                    <dim>37</dim>
                </port>
            </input>
            <output>
                <port id="123">
                    <dim>1</dim>
                    <dim>64</dim>
                    <dim>37</dim>
                    <dim>37</dim>
                </port>
            </output>
        </layer>
        <layer name="inception_3b_double3x3a" type="Convolution" precision="FP32" id="61">
            <convolution_data stride-x="1" stride-y="1" pad-x="1" pad-y="1" kernel-x="3" kernel-y="3" output="96" group="1"/>
            <input>
                <port id="124">
                    <dim>1</dim>
                    <dim>64</dim>
                    <dim>37</dim>
                    <dim>37</dim>
                </port>
            </input>
            <output>
                <port id="125">
                    <dim>1</dim>
                    <dim>96</dim>
                    <dim>37</dim>
                    <dim>37</dim>
                </port>
            </output>
            <weights offset="1790976" size="221184"/>
            <biases offset="2012160" size="384"/>
        </layer>
        <layer name="inception_3b_double3x3a_bn_sc_relu" type="ReLU" precision="FP32" id="64">
            <input>
                <port id="130">
                    <dim>1</dim>
                    <dim>96</dim>
                    <dim>37</dim>
                    <dim>37</dim>
                </port>
            </input>
            <output>
                <port id="131">
                    <dim>1</dim>
                    <dim>96</dim>
                    <dim>37</dim>
                    <dim>37</dim>
                </port>
            </output>
        </layer>
        <layer name="inception_3b_double3x3b" type="Convolution" precision="FP32" id="65">
            <convolution_data stride-x="1" stride-y="1" pad-x="1" pad-y="1" kernel-x="3" kernel-y="3" output="96" group="1"/>
            <input>
                <port id="132">
                    <dim>1</dim>
                    <dim>96</dim>
                    <dim>37</dim>
                    <dim>37</dim>
                </port>
            </input>
            <output>
                <port id="133">
                    <dim>1</dim>
                    <dim>96</dim>
                    <dim>37</dim>
                    <dim>37</dim>
                </port>
            </output>
            <weights offset="2012544" size="331776"/>
            <biases offset="2344320" size="384"/>
        </layer>
        <layer name="inception_3b_double3x3b_bn_sc_relu" type="ReLU" precision="FP32" id="68">
            <input>
                <port id="138">
                    <dim>1</dim>
                    <dim>96</dim>
                    <dim>37</dim>
                    <dim>37</dim>
                </port>
            </input>
            <output>
                <port id="139">
                    <dim>1</dim>
                    <dim>96</dim>
                    <dim>37</dim>
                    <dim>37</dim>
                </port>
            </output>
        </layer>
        <layer name="inception_3b_3x3_reduce" type="Convolution" precision="FP32" id="49">
            <convolution_data stride-x="1" stride-y="1" pad-x="0" pad-y="0" kernel-x="1" kernel-y="1" output="64" group="1"/>
            <input>
                <port id="100">
                    <dim>1</dim>
                    <dim>256</dim>
                    <dim>37</dim>
                    <dim>37</dim>
                </port>
            </input>
            <output>
                <port id="101">
                    <dim>1</dim>
                    <dim>64</dim>
                    <dim>37</dim>
                    <dim>37</dim>
                </port>
            </output>
            <weights offset="1437824" size="65536"/>
            <biases offset="1503360" size="256"/>
        </layer>
        <layer name="inception_3b_3x3_reduce_bn_sc_relu" type="ReLU" precision="FP32" id="52">
            <input>
                <port id="106">
                    <dim>1</dim>
                    <dim>64</dim>
                    <dim>37</dim>
                    <dim>37</dim>
                </port>
            </input>
            <output>
                <port id="107">
                    <dim>1</dim>
                    <dim>64</dim>
                    <dim>37</dim>
                    <dim>37</dim>
                </port>
            </output>
        </layer>
        <layer name="inception_3b_3x3" type="Convolution" precision="FP32" id="53">
            <convolution_data stride-x="1" stride-y="1" pad-x="1" pad-y="1" kernel-x="3" kernel-y="3" output="96" group="1"/>
            <input>
                <port id="108">
                    <dim>1</dim>
                    <dim>64</dim>
                    <dim>37</dim>
                    <dim>37</dim>
                </port>
            </input>
            <output>
                <port id="109">
                    <dim>1</dim>
                    <dim>96</dim>
                    <dim>37</dim>
                    <dim>37</dim>
                </port>
            </output>
            <weights offset="1503616" size="221184"/>
            <biases offset="1724800" size="384"/>
        </layer>
        <layer name="inception_3b_3x3_bn_sc_relu" type="ReLU" precision="FP32" id="56">
            <input>
                <port id="114">
                    <dim>1</dim>
                    <dim>96</dim>
                    <dim>37</dim>
                    <dim>37</dim>
                </port>
            </input>
            <output>
                <port id="115">
                    <dim>1</dim>
                    <dim>96</dim>
                    <dim>37</dim>
                    <dim>37</dim>
                </port>
            </output>
        </layer>
        <layer name="inception_3b_1x1" type="Convolution" precision="FP32" id="45">
            <convolution_data stride-x="1" stride-y="1" pad-x="0" pad-y="0" kernel-x="1" kernel-y="1" output="64" group="1"/>
            <input>
                <port id="92">
                    <dim>1</dim>
                    <dim>256</dim>
                    <dim>37</dim>
                    <dim>37</dim>
                </port>
            </input>
            <output>
                <port id="93">
                    <dim>1</dim>
                    <dim>64</dim>
                    <dim>37</dim>
                    <dim>37</dim>
                </port>
            </output>
            <weights offset="1372032" size="65536"/>
            <biases offset="1437568" size="256"/>
        </layer>
        <layer name="inception_3b_1x1_bn_sc_relu" type="ReLU" precision="FP32" id="48">
            <input>
                <port id="98">
                    <dim>1</dim>
                    <dim>64</dim>
                    <dim>37</dim>
                    <dim>37</dim>
                </port>
            </input>
            <output>
                <port id="99">
                    <dim>1</dim>
                    <dim>64</dim>
                    <dim>37</dim>
                    <dim>37</dim>
                </port>
            </output>
        </layer>
        <layer name="inception_3b_output" type="Concat" precision="FP32" id="74">
            <concat_data axis="1"/>
            <input>
                <port id="150">
                    <dim>1</dim>
                    <dim>64</dim>
                    <dim>37</dim>
                    <dim>37</dim>
                </port>
                <port id="151">
                    <dim>1</dim>
                    <dim>96</dim>
                    <dim>37</dim>
                    <dim>37</dim>
                </port>
                <port id="152">
                    <dim>1</dim>
                    <dim>96</dim>
                    <dim>37</dim>
                    <dim>37</dim>
                </port>
                <port id="153">
                    <dim>1</dim>
                    <dim>64</dim>
                    <dim>37</dim>
                    <dim>37</dim>
                </port>
            </input>
            <output>
                <port id="154">
                    <dim>1</dim>
                    <dim>320</dim>
                    <dim>37</dim>
                    <dim>37</dim>
                </port>
            </output>
        </layer>
        <layer name="conv4_3_norm_mbox_priorbox" type="PriorBox" precision="FP32" id="261">
            <data min_size="30.000000" max_size="60.000000" aspect_ratio="2.000000" flip="1" clip="0" variance="0.100000,0.100000,0.200000,0.200000" img_size="0" img_h="0" img_w="0" step="8.000000" step_h="0.000000" step_w="0.000000" offset="0.500000"/>
            <input>
                <port id="543">
                    <dim>1</dim>
                    <dim>320</dim>
                    <dim>37</dim>
                    <dim>37</dim>
                </port>
                <port id="544">
                    <dim>1</dim>
                    <dim>3</dim>
                    <dim>300</dim>
                    <dim>300</dim>
                </port>
            </input>
            <output>
                <port id="545">
                    <dim>1</dim>
                    <dim>2</dim>
                    <dim>21904</dim>
                </port>
            </output>
        </layer>
        <layer name="conv4_3_norm_mbox_conf" type="Convolution" precision="FP32" id="258">
            <convolution_data stride-x="1" stride-y="1" pad-x="1" pad-y="1" kernel-x="3" kernel-y="3" output="84" group="1"/>
            <input>
                <port id="537">
                    <dim>1</dim>
                    <dim>320</dim>
                    <dim>37</dim>
                    <dim>37</dim>
                </port>
            </input>
            <output>
                <port id="538">
                    <dim>1</dim>
                    <dim>84</dim>
                    <dim>37</dim>
                    <dim>37</dim>
                </port>
            </output>
            <weights offset="32369216" size="967680"/>
            <biases offset="33336896" size="336"/>
        </layer>
        <layer name="conv4_3_norm_mbox_conf_perm" type="Permute" precision="FP32" id="259">
            <data order="0,2,3,1"/>
            <input>
                <port id="539">
                    <dim>1</dim>
                    <dim>84</dim>
                    <dim>37</dim>
                    <dim>37</dim>
                </port>
            </input>
            <output>
                <port id="540">
                    <dim>1</dim>
                    <dim>37</dim>
                    <dim>37</dim>
                    <dim>84</dim>
                </port>
            </output>
        </layer>
        <layer name="conv4_3_norm_mbox_conf_flat" type="Flatten" precision="FP32" id="260">
            <data axis="1" end_axis="-1"/>
            <input>
                <port id="541">
                    <dim>1</dim>
                    <dim>37</dim>
                    <dim>37</dim>
                    <dim>84</dim>
                </port>
            </input>
            <output>
                <port id="542">
                    <dim>1</dim>
                    <dim>114996</dim>
                </port>
            </output>
        </layer>
        <layer name="conv4_3_norm_mbox_loc" type="Convolution" precision="FP32" id="255">
            <convolution_data stride-x="1" stride-y="1" pad-x="1" pad-y="1" kernel-x="3" kernel-y="3" output="16" group="1"/>
            <input>
                <port id="531">
                    <dim>1</dim>
                    <dim>320</dim>
                    <dim>37</dim>
                    <dim>37</dim>
                </port>
            </input>
            <output>
                <port id="532">
                    <dim>1</dim>
                    <dim>16</dim>
                    <dim>37</dim>
                    <dim>37</dim>
                </port>
            </output>
            <weights offset="32184832" size="184320"/>
            <biases offset="32369152" size="64"/>
        </layer>
        <layer name="conv4_3_norm_mbox_loc_perm" type="Permute" precision="FP32" id="256">
            <data order="0,2,3,1"/>
            <input>
                <port id="533">
                    <dim>1</dim>
                    <dim>16</dim>
                    <dim>37</dim>
                    <dim>37</dim>
                </port>
            </input>
            <output>
                <port id="534">
                    <dim>1</dim>
                    <dim>37</dim>
                    <dim>37</dim>
                    <dim>16</dim>
                </port>
            </output>
        </layer>
        <layer name="conv4_3_norm_mbox_loc_flat" type="Flatten" precision="FP32" id="257">
            <data axis="1" end_axis="-1"/>
            <input>
                <port id="535">
                    <dim>1</dim>
                    <dim>37</dim>
                    <dim>37</dim>
                    <dim>16</dim>
                </port>
            </input>
            <output>
                <port id="536">
                    <dim>1</dim>
                    <dim>21904</dim>
                </port>
            </output>
        </layer>
        <layer name="inception_3c_pool" type="Pooling" precision="FP32" id="95">
            <pooling_data kernel-x="3" kernel-y="3" pad-x="0" pad-y="0" stride-x="2" stride-y="2" rounding-type="ceil" pool-method="max"/>
            <input>
                <port id="195">
                    <dim>1</dim>
                    <dim>320</dim>
                    <dim>37</dim>
                    <dim>37</dim>
                </port>
            </input>
            <output>
                <port id="196">
                    <dim>1</dim>
                    <dim>320</dim>
                    <dim>18</dim>
                    <dim>18</dim>
                </port>
            </output>
        </layer>
        <layer name="inception_3c_double3x3_reduce" type="Convolution" precision="FP32" id="83">
            <convolution_data stride-x="1" stride-y="1" pad-x="0" pad-y="0" kernel-x="1" kernel-y="1" output="64" group="1"/>
            <input>
                <port id="171">
                    <dim>1</dim>
                    <dim>320</dim>
                    <dim>37</dim>
                    <dim>37</dim>
                </port>
            </input>
            <output>
                <port id="172">
                    <dim>1</dim>
                    <dim>64</dim>
                    <dim>37</dim>
                    <dim>37</dim>
                </port>
            </output>
            <weights offset="3312768" size="81920"/>
            <biases offset="3394688" size="256"/>
        </layer>
        <layer name="inception_3c_double3x3_reduce_bn_sc_relu" type="ReLU" precision="FP32" id="86">
            <input>
                <port id="177">
                    <dim>1</dim>
                    <dim>64</dim>
                    <dim>37</dim>
                    <dim>37</dim>
                </port>
            </input>
            <output>
                <port id="178">
                    <dim>1</dim>
                    <dim>64</dim>
                    <dim>37</dim>
                    <dim>37</dim>
                </port>
            </output>
        </layer>
        <layer name="inception_3c_double3x3a" type="Convolution" precision="FP32" id="87">
            <convolution_data stride-x="1" stride-y="1" pad-x="1" pad-y="1" kernel-x="3" kernel-y="3" output="96" group="1"/>
            <input>
                <port id="179">
                    <dim>1</dim>
                    <dim>64</dim>
                    <dim>37</dim>
                    <dim>37</dim>
                </port>
            </input>
            <output>
                <port id="180">
                    <dim>1</dim>
                    <dim>96</dim>
                    <dim>37</dim>
                    <dim>37</dim>
                </port>
            </output>
            <weights offset="3394944" size="221184"/>
            <biases offset="3616128" size="384"/>
        </layer>
        <layer name="inception_3c_double3x3a_bn_sc_relu" type="ReLU" precision="FP32" id="90">
            <input>
                <port id="185">
                    <dim>1</dim>
                    <dim>96</dim>
                    <dim>37</dim>
                    <dim>37</dim>
                </port>
            </input>
            <output>
                <port id="186">
                    <dim>1</dim>
                    <dim>96</dim>
                    <dim>37</dim>
                    <dim>37</dim>
                </port>
            </output>
        </layer>
        <layer name="inception_3c_double3x3b" type="Convolution" precision="FP32" id="91">
            <convolution_data stride-x="2" stride-y="2" pad-x="0" pad-y="0" kernel-x="3" kernel-y="3" output="96" group="1"/>
            <input>
                <port id="187">
                    <dim>1</dim>
                    <dim>96</dim>
                    <dim>37</dim>
                    <dim>37</dim>
                </port>
            </input>
            <output>
                <port id="188">
                    <dim>1</dim>
                    <dim>96</dim>
                    <dim>18</dim>
                    <dim>18</dim>
                </port>
            </output>
            <weights offset="3616512" size="331776"/>
            <biases offset="3948288" size="384"/>
        </layer>
        <layer name="inception_3c_double3x3b_bn_sc_relu" type="ReLU" precision="FP32" id="94">
            <input>
                <port id="193">
                    <dim>1</dim>
                    <dim>96</dim>
                    <dim>18</dim>
                    <dim>18</dim>
                </port>
            </input>
            <output>
                <port id="194">
                    <dim>1</dim>
                    <dim>96</dim>
                    <dim>18</dim>
                    <dim>18</dim>
                </port>
            </output>
        </layer>
        <layer name="inception_3c_3x3_reduce" type="Convolution" precision="FP32" id="75">
            <convolution_data stride-x="1" stride-y="1" pad-x="0" pad-y="0" kernel-x="1" kernel-y="1" output="128" group="1"/>
            <input>
                <port id="155">
                    <dim>1</dim>
                    <dim>320</dim>
                    <dim>37</dim>
                    <dim>37</dim>
                </port>
            </input>
            <output>
                <port id="156">
                    <dim>1</dim>
                    <dim>128</dim>
                    <dim>37</dim>
                    <dim>37</dim>
                </port>
            </output>
            <weights offset="2410496" size="163840"/>
            <biases offset="2574336" size="512"/>
        </layer>
        <layer name="inception_3c_3x3_reduce_bn_sc_relu" type="ReLU" precision="FP32" id="78">
            <input>
                <port id="161">
                    <dim>1</dim>
                    <dim>128</dim>
                    <dim>37</dim>
                    <dim>37</dim>
                </port>
            </input>
            <output>
                <port id="162">
                    <dim>1</dim>
                    <dim>128</dim>
                    <dim>37</dim>
                    <dim>37</dim>
                </port>
            </output>
        </layer>
        <layer name="inception_3c_3x3" type="Convolution" precision="FP32" id="79">
            <convolution_data stride-x="2" stride-y="2" pad-x="0" pad-y="0" kernel-x="3" kernel-y="3" output="160" group="1"/>
            <input>
                <port id="163">
                    <dim>1</dim>
                    <dim>128</dim>
                    <dim>37</dim>
                    <dim>37</dim>
                </port>
            </input>
            <output>
                <port id="164">
                    <dim>1</dim>
                    <dim>160</dim>
                    <dim>18</dim>
                    <dim>18</dim>
                </port>
            </output>
            <weights offset="2574848" size="737280"/>
            <biases offset="3312128" size="640"/>
        </layer>
        <layer name="inception_3c_3x3_bn_sc_relu" type="ReLU" precision="FP32" id="82">
            <input>
                <port id="169">
                    <dim>1</dim>
                    <dim>160</dim>
                    <dim>18</dim>
                    <dim>18</dim>
                </port>
            </input>
            <output>
                <port id="170">
                    <dim>1</dim>
                    <dim>160</dim>
                    <dim>18</dim>
                    <dim>18</dim>
                </port>
            </output>
        </layer>
        <layer name="inception_3c_output" type="Concat" precision="FP32" id="96">
            <concat_data axis="1"/>
            <input>
                <port id="197">
                    <dim>1</dim>
                    <dim>160</dim>
                    <dim>18</dim>
                    <dim>18</dim>
                </port>
                <port id="198">
                    <dim>1</dim>
                    <dim>96</dim>
                    <dim>18</dim>
                    <dim>18</dim>
                </port>
                <port id="199">
                    <dim>1</dim>
                    <dim>320</dim>
                    <dim>18</dim>
                    <dim>18</dim>
                </port>
            </input>
            <output>
                <port id="200">
                    <dim>1</dim>
                    <dim>576</dim>
                    <dim>18</dim>
                    <dim>18</dim>
                </port>
            </output>
        </layer>
        <layer name="inception_4a_pool" type="Pooling" precision="FP32" id="121">
            <pooling_data kernel-x="3" kernel-y="3" pad-x="1" pad-y="1" stride-x="1" stride-y="1" rounding-type="ceil" pool-method="avg"/>
            <input>
                <port id="249">
                    <dim>1</dim>
                    <dim>576</dim>
                    <dim>18</dim>
                    <dim>18</dim>
                </port>
            </input>
            <output>
                <port id="250">
                    <dim>1</dim>
                    <dim>576</dim>
                    <dim>18</dim>
                    <dim>18</dim>
                </port>
            </output>
        </layer>
        <layer name="inception_4a_pool_proj" type="Convolution" precision="FP32" id="122">
            <convolution_data stride-x="1" stride-y="1" pad-x="0" pad-y="0" kernel-x="1" kernel-y="1" output="128" group="1"/>
            <input>
                <port id="251">
                    <dim>1</dim>
                    <dim>576</dim>
                    <dim>18</dim>
                    <dim>18</dim>
                </port>
            </input>
            <output>
                <port id="252">
                    <dim>1</dim>
                    <dim>128</dim>
                    <dim>18</dim>
                    <dim>18</dim>
                </port>
            </output>
            <weights offset="6089728" size="294912"/>
            <biases offset="6384640" size="512"/>
        </layer>
        <layer name="inception_4a_pool_proj_bn_sc_relu" type="ReLU" precision="FP32" id="125">
            <input>
                <port id="257">
                    <dim>1</dim>
                    <dim>128</dim>
                    <dim>18</dim>
                    <dim>18</dim>
                </port>
            </input>
            <output>
                <port id="258">
                    <dim>1</dim>
                    <dim>128</dim>
                    <dim>18</dim>
                    <dim>18</dim>
                </port>
            </output>
        </layer>
        <layer name="inception_4a_double3x3_reduce" type="Convolution" precision="FP32" id="109">
            <convolution_data stride-x="1" stride-y="1" pad-x="0" pad-y="0" kernel-x="1" kernel-y="1" output="96" group="1"/>
            <input>
                <port id="225">
                    <dim>1</dim>
                    <dim>576</dim>
                    <dim>18</dim>
                    <dim>18</dim>
                </port>
            </input>
            <output>
                <port id="226">
                    <dim>1</dim>
                    <dim>96</dim>
                    <dim>18</dim>
                    <dim>18</dim>
                </port>
            </output>
            <weights offset="4834944" size="221184"/>
            <biases offset="5056128" size="384"/>
        </layer>
        <layer name="inception_4a_double3x3_reduce_bn_sc_relu" type="ReLU" precision="FP32" id="112">
            <input>
                <port id="231">
                    <dim>1</dim>
                    <dim>96</dim>
                    <dim>18</dim>
                    <dim>18</dim>
                </port>
            </input>
            <output>
                <port id="232">
                    <dim>1</dim>
                    <dim>96</dim>
                    <dim>18</dim>
                    <dim>18</dim>
                </port>
            </output>
        </layer>
        <layer name="inception_4a_double3x3a" type="Convolution" precision="FP32" id="113">
            <convolution_data stride-x="1" stride-y="1" pad-x="1" pad-y="1" kernel-x="3" kernel-y="3" output="128" group="1"/>
            <input>
                <port id="233">
                    <dim>1</dim>
                    <dim>96</dim>
                    <dim>18</dim>
                    <dim>18</dim>
                </port>
            </input>
            <output>
                <port id="234">
                    <dim>1</dim>
                    <dim>128</dim>
                    <dim>18</dim>
                    <dim>18</dim>
                </port>
            </output>
            <weights offset="5056512" size="442368"/>
            <biases offset="5498880" size="512"/>
        </layer>
        <layer name="inception_4a_double3x3a_bn_sc_relu" type="ReLU" precision="FP32" id="116">
            <input>
                <port id="239">
                    <dim>1</dim>
                    <dim>128</dim>
                    <dim>18</dim>
                    <dim>18</dim>
                </port>
            </input>
            <output>
                <port id="240">
                    <dim>1</dim>
                    <dim>128</dim>
                    <dim>18</dim>
                    <dim>18</dim>
                </port>
            </output>
        </layer>
        <layer name="inception_4a_double3x3b" type="Convolution" precision="FP32" id="117">
            <convolution_data stride-x="1" stride-y="1" pad-x="1" pad-y="1" kernel-x="3" kernel-y="3" output="128" group="1"/>
            <input>
                <port id="241">
                    <dim>1</dim>
                    <dim>128</dim>
                    <dim>18</dim>
                    <dim>18</dim>
                </port>
            </input>
            <output>
                <port id="242">
                    <dim>1</dim>
                    <dim>128</dim>
                    <dim>18</dim>
                    <dim>18</dim>
                </port>
            </output>
            <weights offset="5499392" size="589824"/>
            <biases offset="6089216" size="512"/>
        </layer>
        <layer name="inception_4a_double3x3b_bn_sc_relu" type="ReLU" precision="FP32" id="120">
            <input>
                <port id="247">
                    <dim>1</dim>
                    <dim>128</dim>
                    <dim>18</dim>
                    <dim>18</dim>
                </port>
            </input>
            <output>
                <port id="248">
                    <dim>1</dim>
                    <dim>128</dim>
                    <dim>18</dim>
                    <dim>18</dim>
                </port>
            </output>
        </layer>
        <layer name="inception_4a_3x3_reduce" type="Convolution" precision="FP32" id="101">
            <convolution_data stride-x="1" stride-y="1" pad-x="0" pad-y="0" kernel-x="1" kernel-y="1" output="64" group="1"/>
            <input>
                <port id="209">
                    <dim>1</dim>
                    <dim>576</dim>
                    <dim>18</dim>
                    <dim>18</dim>
                </port>
            </input>
            <output>
                <port id="210">
                    <dim>1</dim>
                    <dim>64</dim>
                    <dim>18</dim>
                    <dim>18</dim>
                </port>
            </output>
            <weights offset="4465664" size="147456"/>
            <biases offset="4613120" size="256"/>
        </layer>
        <layer name="inception_4a_3x3_reduce_bn_sc_relu" type="ReLU" precision="FP32" id="104">
            <input>
                <port id="215">
                    <dim>1</dim>
                    <dim>64</dim>
                    <dim>18</dim>
                    <dim>18</dim>
                </port>
            </input>
            <output>
                <port id="216">
                    <dim>1</dim>
                    <dim>64</dim>
                    <dim>18</dim>
                    <dim>18</dim>
                </port>
            </output>
        </layer>
        <layer name="inception_4a_3x3" type="Convolution" precision="FP32" id="105">
            <convolution_data stride-x="1" stride-y="1" pad-x="1" pad-y="1" kernel-x="3" kernel-y="3" output="96" group="1"/>
            <input>
                <port id="217">
                    <dim>1</dim>
                    <dim>64</dim>
                    <dim>18</dim>
                    <dim>18</dim>
                </port>
            </input>
            <output>
                <port id="218">
                    <dim>1</dim>
                    <dim>96</dim>
                    <dim>18</dim>
                    <dim>18</dim>
                </port>
            </output>
            <weights offset="4613376" size="221184"/>
            <biases offset="4834560" size="384"/>
        </layer>
        <layer name="inception_4a_3x3_bn_sc_relu" type="ReLU" precision="FP32" id="108">
            <input>
                <port id="223">
                    <dim>1</dim>
                    <dim>96</dim>
                    <dim>18</dim>
                    <dim>18</dim>
                </port>
            </input>
            <output>
                <port id="224">
                    <dim>1</dim>
                    <dim>96</dim>
                    <dim>18</dim>
                    <dim>18</dim>
                </port>
            </output>
        </layer>
        <layer name="inception_4a_1x1" type="Convolution" precision="FP32" id="97">
            <convolution_data stride-x="1" stride-y="1" pad-x="0" pad-y="0" kernel-x="1" kernel-y="1" output="224" group="1"/>
            <input>
                <port id="201">
                    <dim>1</dim>
                    <dim>576</dim>
                    <dim>18</dim>
                    <dim>18</dim>
                </port>
            </input>
            <output>
                <port id="202">
                    <dim>1</dim>
                    <dim>224</dim>
                    <dim>18</dim>
                    <dim>18</dim>
                </port>
            </output>
            <weights offset="3948672" size="516096"/>
            <biases offset="4464768" size="896"/>
        </layer>
        <layer name="inception_4a_1x1_bn_sc_relu" type="ReLU" precision="FP32" id="100">
            <input>
                <port id="207">
                    <dim>1</dim>
                    <dim>224</dim>
                    <dim>18</dim>
                    <dim>18</dim>
                </port>
            </input>
            <output>
                <port id="208">
                    <dim>1</dim>
                    <dim>224</dim>
                    <dim>18</dim>
                    <dim>18</dim>
                </port>
            </output>
        </layer>
        <layer name="inception_4a_output" type="Concat" precision="FP32" id="126">
            <concat_data axis="1"/>
            <input>
                <port id="259">
                    <dim>1</dim>
                    <dim>224</dim>
                    <dim>18</dim>
                    <dim>18</dim>
                </port>
                <port id="260">
                    <dim>1</dim>
                    <dim>96</dim>
                    <dim>18</dim>
                    <dim>18</dim>
                </port>
                <port id="261">
                    <dim>1</dim>
                    <dim>128</dim>
                    <dim>18</dim>
                    <dim>18</dim>
                </port>
                <port id="262">
                    <dim>1</dim>
                    <dim>128</dim>
                    <dim>18</dim>
                    <dim>18</dim>
                </port>
            </input>
            <output>
                <port id="263">
                    <dim>1</dim>
                    <dim>576</dim>
                    <dim>18</dim>
                    <dim>18</dim>
                </port>
            </output>
        </layer>
        <layer name="inception_4b_pool" type="Pooling" precision="FP32" id="151">
            <pooling_data kernel-x="3" kernel-y="3" pad-x="1" pad-y="1" stride-x="1" stride-y="1" rounding-type="ceil" pool-method="avg"/>
            <input>
                <port id="312">
                    <dim>1</dim>
                    <dim>576</dim>
                    <dim>18</dim>
                    <dim>18</dim>
                </port>
            </input>
            <output>
                <port id="313">
                    <dim>1</dim>
                    <dim>576</dim>
                    <dim>18</dim>
                    <dim>18</dim>
                </port>
            </output>
        </layer>
        <layer name="inception_4b_pool_proj" type="Convolution" precision="FP32" id="152">
            <convolution_data stride-x="1" stride-y="1" pad-x="0" pad-y="0" kernel-x="1" kernel-y="1" output="128" group="1"/>
            <input>
                <port id="314">
                    <dim>1</dim>
                    <dim>576</dim>
                    <dim>18</dim>
                    <dim>18</dim>
                </port>
            </input>
            <output>
                <port id="315">
                    <dim>1</dim>
                    <dim>128</dim>
                    <dim>18</dim>
                    <dim>18</dim>
                </port>
            </output>
            <weights offset="8747520" size="294912"/>
            <biases offset="9042432" size="512"/>
        </layer>
        <layer name="inception_4b_pool_proj_bn_sc_relu" type="ReLU" precision="FP32" id="155">
            <input>
                <port id="320">
                    <dim>1</dim>
                    <dim>128</dim>
                    <dim>18</dim>
                    <dim>18</dim>
                </port>
            </input>
            <output>
                <port id="321">
                    <dim>1</dim>
                    <dim>128</dim>
                    <dim>18</dim>
                    <dim>18</dim>
                </port>
            </output>
        </layer>
        <layer name="inception_4b_double3x3_reduce" type="Convolution" precision="FP32" id="139">
            <convolution_data stride-x="1" stride-y="1" pad-x="0" pad-y="0" kernel-x="1" kernel-y="1" output="96" group="1"/>
            <input>
                <port id="288">
                    <dim>1</dim>
                    <dim>576</dim>
                    <dim>18</dim>
                    <dim>18</dim>
                </port>
            </input>
            <output>
                <port id="289">
                    <dim>1</dim>
                    <dim>96</dim>
                    <dim>18</dim>
                    <dim>18</dim>
                </port>
            </output>
            <weights offset="7492736" size="221184"/>
            <biases offset="7713920" size="384"/>
        </layer>
        <layer name="inception_4b_double3x3_reduce_bn_sc_relu" type="ReLU" precision="FP32" id="142">
            <input>
                <port id="294">
                    <dim>1</dim>
                    <dim>96</dim>
                    <dim>18</dim>
                    <dim>18</dim>
                </port>
            </input>
            <output>
                <port id="295">
                    <dim>1</dim>
                    <dim>96</dim>
                    <dim>18</dim>
                    <dim>18</dim>
                </port>
            </output>
        </layer>
        <layer name="inception_4b_double3x3a" type="Convolution" precision="FP32" id="143">
            <convolution_data stride-x="1" stride-y="1" pad-x="1" pad-y="1" kernel-x="3" kernel-y="3" output="128" group="1"/>
            <input>
                <port id="296">
                    <dim>1</dim>
                    <dim>96</dim>
                    <dim>18</dim>
                    <dim>18</dim>
                </port>
            </input>
            <output>
                <port id="297">
                    <dim>1</dim>
                    <dim>128</dim>
                    <dim>18</dim>
                    <dim>18</dim>
                </port>
            </output>
            <weights offset="7714304" size="442368"/>
            <biases offset="8156672" size="512"/>
        </layer>
        <layer name="inception_4b_double3x3a_bn_sc_relu" type="ReLU" precision="FP32" id="146">
            <input>
                <port id="302">
                    <dim>1</dim>
                    <dim>128</dim>
                    <dim>18</dim>
                    <dim>18</dim>
                </port>
            </input>
            <output>
                <port id="303">
                    <dim>1</dim>
                    <dim>128</dim>
                    <dim>18</dim>
                    <dim>18</dim>
                </port>
            </output>
        </layer>
        <layer name="inception_4b_double3x3b" type="Convolution" precision="FP32" id="147">
            <convolution_data stride-x="1" stride-y="1" pad-x="1" pad-y="1" kernel-x="3" kernel-y="3" output="128" group="1"/>
            <input>
                <port id="304">
                    <dim>1</dim>
                    <dim>128</dim>
                    <dim>18</dim>
                    <dim>18</dim>
                </port>
            </input>
            <output>
                <port id="305">
                    <dim>1</dim>
                    <dim>128</dim>
                    <dim>18</dim>
                    <dim>18</dim>
                </port>
            </output>
            <weights offset="8157184" size="589824"/>
            <biases offset="8747008" size="512"/>
        </layer>
        <layer name="inception_4b_double3x3b_bn_sc_relu" type="ReLU" precision="FP32" id="150">
            <input>
                <port id="310">
                    <dim>1</dim>
                    <dim>128</dim>
                    <dim>18</dim>
                    <dim>18</dim>
                </port>
            </input>
            <output>
                <port id="311">
                    <dim>1</dim>
                    <dim>128</dim>
                    <dim>18</dim>
                    <dim>18</dim>
                </port>
            </output>
        </layer>
        <layer name="inception_4b_3x3_reduce" type="Convolution" precision="FP32" id="131">
            <convolution_data stride-x="1" stride-y="1" pad-x="0" pad-y="0" kernel-x="1" kernel-y="1" output="96" group="1"/>
            <input>
                <port id="272">
                    <dim>1</dim>
                    <dim>576</dim>
                    <dim>18</dim>
                    <dim>18</dim>
                </port>
            </input>
            <output>
                <port id="273">
                    <dim>1</dim>
                    <dim>96</dim>
                    <dim>18</dim>
                    <dim>18</dim>
                </port>
            </output>
            <weights offset="6828288" size="221184"/>
            <biases offset="7049472" size="384"/>
        </layer>
        <layer name="inception_4b_3x3_reduce_bn_sc_relu" type="ReLU" precision="FP32" id="134">
            <input>
                <port id="278">
                    <dim>1</dim>
                    <dim>96</dim>
                    <dim>18</dim>
                    <dim>18</dim>
                </port>
            </input>
            <output>
                <port id="279">
                    <dim>1</dim>
                    <dim>96</dim>
                    <dim>18</dim>
                    <dim>18</dim>
                </port>
            </output>
        </layer>
        <layer name="inception_4b_3x3" type="Convolution" precision="FP32" id="135">
            <convolution_data stride-x="1" stride-y="1" pad-x="1" pad-y="1" kernel-x="3" kernel-y="3" output="128" group="1"/>
            <input>
                <port id="280">
                    <dim>1</dim>
                    <dim>96</dim>
                    <dim>18</dim>
                    <dim>18</dim>
                </port>
            </input>
            <output>
                <port id="281">
                    <dim>1</dim>
                    <dim>128</dim>
                    <dim>18</dim>
                    <dim>18</dim>
                </port>
            </output>
            <weights offset="7049856" size="442368"/>
            <biases offset="7492224" size="512"/>
        </layer>
        <layer name="inception_4b_3x3_bn_sc_relu" type="ReLU" precision="FP32" id="138">
            <input>
                <port id="286">
                    <dim>1</dim>
                    <dim>128</dim>
                    <dim>18</dim>
                    <dim>18</dim>
                </port>
            </input>
            <output>
                <port id="287">
                    <dim>1</dim>
                    <dim>128</dim>
                    <dim>18</dim>
                    <dim>18</dim>
                </port>
            </output>
        </layer>
        <layer name="inception_4b_1x1" type="Convolution" precision="FP32" id="127">
            <convolution_data stride-x="1" stride-y="1" pad-x="0" pad-y="0" kernel-x="1" kernel-y="1" output="192" group="1"/>
            <input>
                <port id="264">
                    <dim>1</dim>
                    <dim>576</dim>
                    <dim>18</dim>
                    <dim>18</dim>
                </port>
            </input>
            <output>
                <port id="265">
                    <dim>1</dim>
                    <dim>192</dim>
                    <dim>18</dim>
                    <dim>18</dim>
                </port>
            </output>
            <weights offset="6385152" size="442368"/>
            <biases offset="6827520" size="768"/>
        </layer>
        <layer name="inception_4b_1x1_bn_sc_relu" type="ReLU" precision="FP32" id="130">
            <input>
                <port id="270">
                    <dim>1</dim>
                    <dim>192</dim>
                    <dim>18</dim>
                    <dim>18</dim>
                </port>
            </input>
            <output>
                <port id="271">
                    <dim>1</dim>
                    <dim>192</dim>
                    <dim>18</dim>
                    <dim>18</dim>
                </port>
            </output>
        </layer>
        <layer name="inception_4b_output" type="Concat" precision="FP32" id="156">
            <concat_data axis="1"/>
            <input>
                <port id="322">
                    <dim>1</dim>
                    <dim>192</dim>
                    <dim>18</dim>
                    <dim>18</dim>
                </port>
                <port id="323">
                    <dim>1</dim>
                    <dim>128</dim>
                    <dim>18</dim>
                    <dim>18</dim>
                </port>
                <port id="324">
                    <dim>1</dim>
                    <dim>128</dim>
                    <dim>18</dim>
                    <dim>18</dim>
                </port>
                <port id="325">
                    <dim>1</dim>
                    <dim>128</dim>
                    <dim>18</dim>
                    <dim>18</dim>
                </port>
            </input>
            <output>
                <port id="326">
                    <dim>1</dim>
                    <dim>576</dim>
                    <dim>18</dim>
                    <dim>18</dim>
                </port>
            </output>
        </layer>
        <layer name="inception_4c_pool" type="Pooling" precision="FP32" id="181">
            <pooling_data kernel-x="3" kernel-y="3" pad-x="1" pad-y="1" stride-x="1" stride-y="1" rounding-type="ceil" pool-method="avg"/>
            <input>
                <port id="375">
                    <dim>1</dim>
                    <dim>576</dim>
                    <dim>18</dim>
                    <dim>18</dim>
                </port>
            </input>
            <output>
                <port id="376">
                    <dim>1</dim>
                    <dim>576</dim>
                    <dim>18</dim>
                    <dim>18</dim>
                </port>
            </output>
        </layer>
        <layer name="inception_4c_pool_proj" type="Convolution" precision="FP32" id="182">
            <convolution_data stride-x="1" stride-y="1" pad-x="0" pad-y="0" kernel-x="1" kernel-y="1" output="96" group="1"/>
            <input>
                <port id="377">
                    <dim>1</dim>
                    <dim>576</dim>
                    <dim>18</dim>
                    <dim>18</dim>
                </port>
            </input>
            <output>
                <port id="378">
                    <dim>1</dim>
                    <dim>96</dim>
                    <dim>18</dim>
                    <dim>18</dim>
                </port>
            </output>
            <weights offset="12401152" size="221184"/>
            <biases offset="12622336" size="384"/>
        </layer>
        <layer name="inception_4c_pool_proj_bn_sc_relu" type="ReLU" precision="FP32" id="185">
            <input>
                <port id="383">
                    <dim>1</dim>
                    <dim>96</dim>
                    <dim>18</dim>
                    <dim>18</dim>
                </port>
            </input>
            <output>
                <port id="384">
                    <dim>1</dim>
                    <dim>96</dim>
                    <dim>18</dim>
                    <dim>18</dim>
                </port>
            </output>
        </layer>
        <layer name="inception_4c_double3x3_reduce" type="Convolution" precision="FP32" id="169">
            <convolution_data stride-x="1" stride-y="1" pad-x="0" pad-y="0" kernel-x="1" kernel-y="1" output="128" group="1"/>
            <input>
                <port id="351">
                    <dim>1</dim>
                    <dim>576</dim>
                    <dim>18</dim>
                    <dim>18</dim>
                </port>
            </input>
            <output>
                <port id="352">
                    <dim>1</dim>
                    <dim>128</dim>
                    <dim>18</dim>
                    <dim>18</dim>
                </port>
            </output>
            <weights offset="10445568" size="294912"/>
            <biases offset="10740480" size="512"/>
        </layer>
        <layer name="inception_4c_double3x3_reduce_bn_sc_relu" type="ReLU" precision="FP32" id="172">
            <input>
                <port id="357">
                    <dim>1</dim>
                    <dim>128</dim>
                    <dim>18</dim>
                    <dim>18</dim>
                </port>
            </input>
            <output>
                <port id="358">
                    <dim>1</dim>
                    <dim>128</dim>
                    <dim>18</dim>
                    <dim>18</dim>
                </port>
            </output>
        </layer>
        <layer name="inception_4c_double3x3a" type="Convolution" precision="FP32" id="173">
            <convolution_data stride-x="1" stride-y="1" pad-x="1" pad-y="1" kernel-x="3" kernel-y="3" output="160" group="1"/>
            <input>
                <port id="359">
                    <dim>1</dim>
                    <dim>128</dim>
                    <dim>18</dim>
                    <dim>18</dim>
                </port>
            </input>
            <output>
                <port id="360">
                    <dim>1</dim>
                    <dim>160</dim>
                    <dim>18</dim>
                    <dim>18</dim>
                </port>
            </output>
            <weights offset="10740992" size="737280"/>
            <biases offset="11478272" size="640"/>
        </layer>
        <layer name="inception_4c_double3x3a_bn_sc_relu" type="ReLU" precision="FP32" id="176">
            <input>
                <port id="365">
                    <dim>1</dim>
                    <dim>160</dim>
                    <dim>18</dim>
                    <dim>18</dim>
                </port>
            </input>
            <output>
                <port id="366">
                    <dim>1</dim>
                    <dim>160</dim>
                    <dim>18</dim>
                    <dim>18</dim>
                </port>
            </output>
        </layer>
        <layer name="inception_4c_double3x3b" type="Convolution" precision="FP32" id="177">
            <convolution_data stride-x="1" stride-y="1" pad-x="1" pad-y="1" kernel-x="3" kernel-y="3" output="160" group="1"/>
            <input>
                <port id="367">
                    <dim>1</dim>
                    <dim>160</dim>
                    <dim>18</dim>
                    <dim>18</dim>
                </port>
            </input>
            <output>
                <port id="368">
                    <dim>1</dim>
                    <dim>160</dim>
                    <dim>18</dim>
                    <dim>18</dim>
                </port>
            </output>
            <weights offset="11478912" size="921600"/>
            <biases offset="12400512" size="640"/>
        </layer>
        <layer name="inception_4c_double3x3b_bn_sc_relu" type="ReLU" precision="FP32" id="180">
            <input>
                <port id="373">
                    <dim>1</dim>
                    <dim>160</dim>
                    <dim>18</dim>
                    <dim>18</dim>
                </port>
            </input>
            <output>
                <port id="374">
                    <dim>1</dim>
                    <dim>160</dim>
                    <dim>18</dim>
                    <dim>18</dim>
                </port>
            </output>
        </layer>
        <layer name="inception_4c_3x3_reduce" type="Convolution" precision="FP32" id="161">
            <convolution_data stride-x="1" stride-y="1" pad-x="0" pad-y="0" kernel-x="1" kernel-y="1" output="128" group="1"/>
            <input>
                <port id="335">
                    <dim>1</dim>
                    <dim>576</dim>
                    <dim>18</dim>
                    <dim>18</dim>
                </port>
            </input>
            <output>
                <port id="336">
                    <dim>1</dim>
                    <dim>128</dim>
                    <dim>18</dim>
                    <dim>18</dim>
                </port>
            </output>
            <weights offset="9412224" size="294912"/>
            <biases offset="9707136" size="512"/>
        </layer>
        <layer name="inception_4c_3x3_reduce_bn_sc_relu" type="ReLU" precision="FP32" id="164">
            <input>
                <port id="341">
                    <dim>1</dim>
                    <dim>128</dim>
                    <dim>18</dim>
                    <dim>18</dim>
                </port>
            </input>
            <output>
                <port id="342">
                    <dim>1</dim>
                    <dim>128</dim>
                    <dim>18</dim>
                    <dim>18</dim>
                </port>
            </output>
        </layer>
        <layer name="inception_4c_3x3" type="Convolution" precision="FP32" id="165">
            <convolution_data stride-x="1" stride-y="1" pad-x="1" pad-y="1" kernel-x="3" kernel-y="3" output="160" group="1"/>
            <input>
                <port id="343">
                    <dim>1</dim>
                    <dim>128</dim>
                    <dim>18</dim>
                    <dim>18</dim>
                </port>
            </input>
            <output>
                <port id="344">
                    <dim>1</dim>
                    <dim>160</dim>
                    <dim>18</dim>
                    <dim>18</dim>
                </port>
            </output>
            <weights offset="9707648" size="737280"/>
            <biases offset="10444928" size="640"/>
        </layer>
        <layer name="inception_4c_3x3_bn_sc_relu" type="ReLU" precision="FP32" id="168">
            <input>
                <port id="349">
                    <dim>1</dim>
                    <dim>160</dim>
                    <dim>18</dim>
                    <dim>18</dim>
                </port>
            </input>
            <output>
                <port id="350">
                    <dim>1</dim>
                    <dim>160</dim>
                    <dim>18</dim>
                    <dim>18</dim>
                </port>
            </output>
        </layer>
        <layer name="inception_4c_1x1" type="Convolution" precision="FP32" id="157">
            <convolution_data stride-x="1" stride-y="1" pad-x="0" pad-y="0" kernel-x="1" kernel-y="1" output="160" group="1"/>
            <input>
                <port id="327">
                    <dim>1</dim>
                    <dim>576</dim>
                    <dim>18</dim>
                    <dim>18</dim>
                </port>
            </input>
            <output>
                <port id="328">
                    <dim>1</dim>
                    <dim>160</dim>
                    <dim>18</dim>
                    <dim>18</dim>
                </port>
            </output>
            <weights offset="9042944" size="368640"/>
            <biases offset="9411584" size="640"/>
        </layer>
        <layer name="inception_4c_1x1_bn_sc_relu" type="ReLU" precision="FP32" id="160">
            <input>
                <port id="333">
                    <dim>1</dim>
                    <dim>160</dim>
                    <dim>18</dim>
                    <dim>18</dim>
                </port>
            </input>
            <output>
                <port id="334">
                    <dim>1</dim>
                    <dim>160</dim>
                    <dim>18</dim>
                    <dim>18</dim>
                </port>
            </output>
        </layer>
        <layer name="inception_4c_output" type="Concat" precision="FP32" id="186">
            <concat_data axis="1"/>
            <input>
                <port id="385">
                    <dim>1</dim>
                    <dim>160</dim>
                    <dim>18</dim>
                    <dim>18</dim>
                </port>
                <port id="386">
                    <dim>1</dim>
                    <dim>160</dim>
                    <dim>18</dim>
                    <dim>18</dim>
                </port>
                <port id="387">
                    <dim>1</dim>
                    <dim>160</dim>
                    <dim>18</dim>
                    <dim>18</dim>
                </port>
                <port id="388">
                    <dim>1</dim>
                    <dim>96</dim>
                    <dim>18</dim>
                    <dim>18</dim>
                </port>
            </input>
            <output>
                <port id="389">
                    <dim>1</dim>
                    <dim>576</dim>
                    <dim>18</dim>
                    <dim>18</dim>
                </port>
            </output>
        </layer>
        <layer name="inception_4d_pool" type="Pooling" precision="FP32" id="211">
            <pooling_data kernel-x="3" kernel-y="3" pad-x="1" pad-y="1" stride-x="1" stride-y="1" rounding-type="ceil" pool-method="avg"/>
            <input>
                <port id="438">
                    <dim>1</dim>
                    <dim>576</dim>
                    <dim>18</dim>
                    <dim>18</dim>
                </port>
            </input>
            <output>
                <port id="439">
                    <dim>1</dim>
                    <dim>576</dim>
                    <dim>18</dim>
                    <dim>18</dim>
                </port>
            </output>
        </layer>
        <layer name="inception_4d_pool_proj" type="Convolution" precision="FP32" id="212">
            <convolution_data stride-x="1" stride-y="1" pad-x="0" pad-y="0" kernel-x="1" kernel-y="1" output="96" group="1"/>
            <input>
                <port id="440">
                    <dim>1</dim>
                    <dim>576</dim>
                    <dim>18</dim>
                    <dim>18</dim>
                </port>
            </input>
            <output>
                <port id="441">
                    <dim>1</dim>
                    <dim>96</dim>
                    <dim>18</dim>
                    <dim>18</dim>
                </port>
            </output>
            <weights offset="16829056" size="221184"/>
            <biases offset="17050240" size="384"/>
        </layer>
        <layer name="inception_4d_pool_proj_bn_sc_relu" type="ReLU" precision="FP32" id="215">
            <input>
                <port id="446">
                    <dim>1</dim>
                    <dim>96</dim>
                    <dim>18</dim>
                    <dim>18</dim>
                </port>
            </input>
            <output>
                <port id="447">
                    <dim>1</dim>
                    <dim>96</dim>
                    <dim>18</dim>
                    <dim>18</dim>
                </port>
            </output>
        </layer>
        <layer name="inception_4d_double3x3_reduce" type="Convolution" precision="FP32" id="199">
            <convolution_data stride-x="1" stride-y="1" pad-x="0" pad-y="0" kernel-x="1" kernel-y="1" output="160" group="1"/>
            <input>
                <port id="414">
                    <dim>1</dim>
                    <dim>576</dim>
                    <dim>18</dim>
                    <dim>18</dim>
                </port>
            </input>
            <output>
                <port id="415">
                    <dim>1</dim>
                    <dim>160</dim>
                    <dim>18</dim>
                    <dim>18</dim>
                </port>
            </output>
            <weights offset="14025216" size="368640"/>
            <biases offset="14393856" size="640"/>
        </layer>
        <layer name="inception_4d_double3x3_reduce_bn_sc_relu" type="ReLU" precision="FP32" id="202">
            <input>
                <port id="420">
                    <dim>1</dim>
                    <dim>160</dim>
                    <dim>18</dim>
                    <dim>18</dim>
                </port>
            </input>
            <output>
                <port id="421">
                    <dim>1</dim>
                    <dim>160</dim>
                    <dim>18</dim>
                    <dim>18</dim>
                </port>
            </output>
        </layer>
        <layer name="inception_4d_double3x3a" type="Convolution" precision="FP32" id="203">
            <convolution_data stride-x="1" stride-y="1" pad-x="1" pad-y="1" kernel-x="3" kernel-y="3" output="192" group="1"/>
            <input>
                <port id="422">
                    <dim>1</dim>
                    <dim>160</dim>
                    <dim>18</dim>
                    <dim>18</dim>
                </port>
            </input>
            <output>
                <port id="423">
                    <dim>1</dim>
                    <dim>192</dim>
                    <dim>18</dim>
                    <dim>18</dim>
                </port>
            </output>
            <weights offset="14394496" size="1105920"/>
            <biases offset="15500416" size="768"/>
        </layer>
        <layer name="inception_4d_double3x3a_bn_sc_relu" type="ReLU" precision="FP32" id="206">
            <input>
                <port id="428">
                    <dim>1</dim>
                    <dim>192</dim>
                    <dim>18</dim>
                    <dim>18</dim>
                </port>
            </input>
            <output>
                <port id="429">
                    <dim>1</dim>
                    <dim>192</dim>
                    <dim>18</dim>
                    <dim>18</dim>
                </port>
            </output>
        </layer>
        <layer name="inception_4d_double3x3b" type="Convolution" precision="FP32" id="207">
            <convolution_data stride-x="1" stride-y="1" pad-x="1" pad-y="1" kernel-x="3" kernel-y="3" output="192" group="1"/>
            <input>
                <port id="430">
                    <dim>1</dim>
                    <dim>192</dim>
                    <dim>18</dim>
                    <dim>18</dim>
                </port>
            </input>
            <output>
                <port id="431">
                    <dim>1</dim>
                    <dim>192</dim>
                    <dim>18</dim>
                    <dim>18</dim>
                </port>
            </output>
            <weights offset="15501184" size="1327104"/>
            <biases offset="16828288" size="768"/>
        </layer>
        <layer name="inception_4d_double3x3b_bn_sc_relu" type="ReLU" precision="FP32" id="210">
            <input>
                <port id="436">
                    <dim>1</dim>
                    <dim>192</dim>
                    <dim>18</dim>
                    <dim>18</dim>
                </port>
            </input>
            <output>
                <port id="437">
                    <dim>1</dim>
                    <dim>192</dim>
                    <dim>18</dim>
                    <dim>18</dim>
                </port>
            </output>
        </layer>
        <layer name="inception_4d_3x3_reduce" type="Convolution" precision="FP32" id="191">
            <convolution_data stride-x="1" stride-y="1" pad-x="0" pad-y="0" kernel-x="1" kernel-y="1" output="128" group="1"/>
            <input>
                <port id="398">
                    <dim>1</dim>
                    <dim>576</dim>
                    <dim>18</dim>
                    <dim>18</dim>
                </port>
            </input>
            <output>
                <port id="399">
                    <dim>1</dim>
                    <dim>128</dim>
                    <dim>18</dim>
                    <dim>18</dim>
                </port>
            </output>
            <weights offset="12844288" size="294912"/>
            <biases offset="13139200" size="512"/>
        </layer>
        <layer name="inception_4d_3x3_reduce_bn_sc_relu" type="ReLU" precision="FP32" id="194">
            <input>
                <port id="404">
                    <dim>1</dim>
                    <dim>128</dim>
                    <dim>18</dim>
                    <dim>18</dim>
                </port>
            </input>
            <output>
                <port id="405">
                    <dim>1</dim>
                    <dim>128</dim>
                    <dim>18</dim>
                    <dim>18</dim>
                </port>
            </output>
        </layer>
        <layer name="inception_4d_3x3" type="Convolution" precision="FP32" id="195">
            <convolution_data stride-x="1" stride-y="1" pad-x="1" pad-y="1" kernel-x="3" kernel-y="3" output="192" group="1"/>
            <input>
                <port id="406">
                    <dim>1</dim>
                    <dim>128</dim>
                    <dim>18</dim>
                    <dim>18</dim>
                </port>
            </input>
            <output>
                <port id="407">
                    <dim>1</dim>
                    <dim>192</dim>
                    <dim>18</dim>
                    <dim>18</dim>
                </port>
            </output>
            <weights offset="13139712" size="884736"/>
            <biases offset="14024448" size="768"/>
        </layer>
        <layer name="inception_4d_3x3_bn_sc_relu" type="ReLU" precision="FP32" id="198">
            <input>
                <port id="412">
                    <dim>1</dim>
                    <dim>192</dim>
                    <dim>18</dim>
                    <dim>18</dim>
                </port>
            </input>
            <output>
                <port id="413">
                    <dim>1</dim>
                    <dim>192</dim>
                    <dim>18</dim>
                    <dim>18</dim>
                </port>
            </output>
        </layer>
        <layer name="inception_4d_1x1" type="Convolution" precision="FP32" id="187">
            <convolution_data stride-x="1" stride-y="1" pad-x="0" pad-y="0" kernel-x="1" kernel-y="1" output="96" group="1"/>
            <input>
                <port id="390">
                    <dim>1</dim>
                    <dim>576</dim>
                    <dim>18</dim>
                    <dim>18</dim>
                </port>
            </input>
            <output>
                <port id="391">
                    <dim>1</dim>
                    <dim>96</dim>
                    <dim>18</dim>
                    <dim>18</dim>
                </port>
            </output>
            <weights offset="12622720" size="221184"/>
            <biases offset="12843904" size="384"/>
        </layer>
        <layer name="inception_4d_1x1_bn_sc_relu" type="ReLU" precision="FP32" id="190">
            <input>
                <port id="396">
                    <dim>1</dim>
                    <dim>96</dim>
                    <dim>18</dim>
                    <dim>18</dim>
                </port>
            </input>
            <output>
                <port id="397">
                    <dim>1</dim>
                    <dim>96</dim>
                    <dim>18</dim>
                    <dim>18</dim>
                </port>
            </output>
        </layer>
        <layer name="inception_4d_output" type="Concat" precision="FP32" id="216">
            <concat_data axis="1"/>
            <input>
                <port id="448">
                    <dim>1</dim>
                    <dim>96</dim>
                    <dim>18</dim>
                    <dim>18</dim>
                </port>
                <port id="449">
                    <dim>1</dim>
                    <dim>192</dim>
                    <dim>18</dim>
                    <dim>18</dim>
                </port>
                <port id="450">
                    <dim>1</dim>
                    <dim>192</dim>
                    <dim>18</dim>
                    <dim>18</dim>
                </port>
                <port id="451">
                    <dim>1</dim>
                    <dim>96</dim>
                    <dim>18</dim>
                    <dim>18</dim>
                </port>
            </input>
            <output>
                <port id="452">
                    <dim>1</dim>
                    <dim>576</dim>
                    <dim>18</dim>
                    <dim>18</dim>
                </port>
            </output>
        </layer>
        <layer name="conv6_1" type="Convolution" precision="FP32" id="239">
            <convolution_data stride-x="1" stride-y="1" pad-x="0" pad-y="0" kernel-x="1" kernel-y="1" output="256" group="1"/>
            <input>
                <port id="499">
                    <dim>1</dim>
                    <dim>576</dim>
                    <dim>18</dim>
                    <dim>18</dim>
                </port>
            </input>
            <output>
                <port id="500">
                    <dim>1</dim>
                    <dim>256</dim>
                    <dim>18</dim>
                    <dim>18</dim>
                </port>
            </output>
            <weights offset="22805504" size="589824"/>
            <biases offset="23395328" size="1024"/>
        </layer>
        <layer name="conv6_1_relu" type="ReLU" precision="FP32" id="240">
            <input>
                <port id="501">
                    <dim>1</dim>
                    <dim>256</dim>
                    <dim>18</dim>
                    <dim>18</dim>
                </port>
            </input>
            <output>
                <port id="502">
                    <dim>1</dim>
                    <dim>256</dim>
                    <dim>18</dim>
                    <dim>18</dim>
                </port>
            </output>
        </layer>
        <layer name="conv6_2" type="Convolution" precision="FP32" id="241">
            <convolution_data stride-x="2" stride-y="2" pad-x="1" pad-y="1" kernel-x="3" kernel-y="3" output="512" group="1"/>
            <input>
                <port id="503">
                    <dim>1</dim>
                    <dim>256</dim>
                    <dim>18</dim>
                    <dim>18</dim>
                </port>
            </input>
            <output>
                <port id="504">
                    <dim>1</dim>
                    <dim>512</dim>
                    <dim>9</dim>
                    <dim>9</dim>
                </port>
            </output>
            <weights offset="23396352" size="4718592"/>
            <biases offset="28114944" size="2048"/>
        </layer>
        <layer name="conv6_2_relu" type="ReLU" precision="FP32" id="242">
            <input>
                <port id="505">
                    <dim>1</dim>
                    <dim>512</dim>
                    <dim>9</dim>
                    <dim>9</dim>
                </port>
            </input>
            <output>
                <port id="506">
                    <dim>1</dim>
                    <dim>512</dim>
                    <dim>9</dim>
                    <dim>9</dim>
                </port>
            </output>
        </layer>
        <layer name="conv6_2_mbox_priorbox" type="PriorBox" precision="FP32" id="275">
            <data min_size="111.000000" max_size="162.000000" aspect_ratio="2.000000,3.000000" flip="1" clip="0" variance="0.100000,0.100000,0.200000,0.200000" img_size="0" img_h="0" img_w="0" step="32.000000" step_h="0.000000" step_w="0.000000" offset="0.500000"/>
            <input>
                <port id="573">
                    <dim>1</dim>
                    <dim>512</dim>
                    <dim>9</dim>
                    <dim>9</dim>
                </port>
                <port id="574">
                    <dim>1</dim>
                    <dim>3</dim>
                    <dim>300</dim>
                    <dim>300</dim>
                </port>
            </input>
            <output>
                <port id="575">
                    <dim>1</dim>
                    <dim>2</dim>
                    <dim>1944</dim>
                </port>
            </output>
        </layer>
        <layer name="conv6_2_mbox_conf" type="Convolution" precision="FP32" id="272">
            <convolution_data stride-x="1" stride-y="1" pad-x="1" pad-y="1" kernel-x="3" kernel-y="3" output="126" group="1"/>
            <input>
                <port id="567">
                    <dim>1</dim>
                    <dim>512</dim>
                    <dim>9</dim>
                    <dim>9</dim>
                </port>
            </input>
            <output>
                <port id="568">
                    <dim>1</dim>
                    <dim>126</dim>
                    <dim>9</dim>
                    <dim>9</dim>
                </port>
            </output>
            <weights offset="39309896" size="2322432"/>
            <biases offset="41632328" size="504"/>
        </layer>
        <layer name="conv6_2_mbox_conf_perm" type="Permute" precision="FP32" id="273">
            <data order="0,2,3,1"/>
            <input>
                <port id="569">
                    <dim>1</dim>
                    <dim>126</dim>
                    <dim>9</dim>
                    <dim>9</dim>
                </port>
            </input>
            <output>
                <port id="570">
                    <dim>1</dim>
                    <dim>9</dim>
                    <dim>9</dim>
                    <dim>126</dim>
                </port>
            </output>
        </layer>
        <layer name="conv6_2_mbox_conf_flat" type="Flatten" precision="FP32" id="274">
            <data axis="1" end_axis="-1"/>
            <input>
                <port id="571">
                    <dim>1</dim>
                    <dim>9</dim>
                    <dim>9</dim>
                    <dim>126</dim>
                </port>
            </input>
            <output>
                <port id="572">
                    <dim>1</dim>
                    <dim>10206</dim>
                </port>
            </output>
        </layer>
        <layer name="conv6_2_mbox_loc" type="Convolution" precision="FP32" id="269">
            <convolution_data stride-x="1" stride-y="1" pad-x="1" pad-y="1" kernel-x="3" kernel-y="3" output="24" group="1"/>
            <input>
                <port id="561">
                    <dim>1</dim>
                    <dim>512</dim>
                    <dim>9</dim>
                    <dim>9</dim>
                </port>
            </input>
            <output>
                <port id="562">
                    <dim>1</dim>
                    <dim>24</dim>
                    <dim>9</dim>
                    <dim>9</dim>
                </port>
            </output>
            <weights offset="38867432" size="442368"/>
            <biases offset="39309800" size="96"/>
        </layer>
        <layer name="conv6_2_mbox_loc_perm" type="Permute" precision="FP32" id="270">
            <data order="0,2,3,1"/>
            <input>
                <port id="563">
                    <dim>1</dim>
                    <dim>24</dim>
                    <dim>9</dim>
                    <dim>9</dim>
                </port>
            </input>
            <output>
                <port id="564">
                    <dim>1</dim>
                    <dim>9</dim>
                    <dim>9</dim>
                    <dim>24</dim>
                </port>
            </output>
        </layer>
        <layer name="conv6_2_mbox_loc_flat" type="Flatten" precision="FP32" id="271">
            <data axis="1" end_axis="-1"/>
            <input>
                <port id="565">
                    <dim>1</dim>
                    <dim>9</dim>
                    <dim>9</dim>
                    <dim>24</dim>
                </port>
            </input>
            <output>
                <port id="566">
                    <dim>1</dim>
                    <dim>1944</dim>
                </port>
            </output>
        </layer>
        <layer name="conv7_1" type="Convolution" precision="FP32" id="243">
            <convolution_data stride-x="1" stride-y="1" pad-x="0" pad-y="0" kernel-x="1" kernel-y="1" output="128" group="1"/>
            <input>
                <port id="507">
                    <dim>1</dim>
                    <dim>512</dim>
                    <dim>9</dim>
                    <dim>9</dim>
                </port>
            </input>
            <output>
                <port id="508">
                    <dim>1</dim>
                    <dim>128</dim>
                    <dim>9</dim>
                    <dim>9</dim>
                </port>
            </output>
            <weights offset="28116992" size="262144"/>
            <biases offset="28379136" size="512"/>
        </layer>
        <layer name="conv7_1_relu" type="ReLU" precision="FP32" id="244">
            <input>
                <port id="509">
                    <dim>1</dim>
                    <dim>128</dim>
                    <dim>9</dim>
                    <dim>9</dim>
                </port>
            </input>
            <output>
                <port id="510">
                    <dim>1</dim>
                    <dim>128</dim>
                    <dim>9</dim>
                    <dim>9</dim>
                </port>
            </output>
        </layer>
        <layer name="conv7_2" type="Convolution" precision="FP32" id="245">
            <convolution_data stride-x="2" stride-y="2" pad-x="1" pad-y="1" kernel-x="3" kernel-y="3" output="256" group="1"/>
            <input>
                <port id="511">
                    <dim>1</dim>
                    <dim>128</dim>
                    <dim>9</dim>
                    <dim>9</dim>
                </port>
            </input>
            <output>
                <port id="512">
                    <dim>1</dim>
                    <dim>256</dim>
                    <dim>5</dim>
                    <dim>5</dim>
                </port>
            </output>
            <weights offset="28379648" size="1179648"/>
            <biases offset="29559296" size="1024"/>
        </layer>
        <layer name="conv7_2_relu" type="ReLU" precision="FP32" id="246">
            <input>
                <port id="513">
                    <dim>1</dim>
                    <dim>256</dim>
                    <dim>5</dim>
                    <dim>5</dim>
                </port>
            </input>
            <output>
                <port id="514">
                    <dim>1</dim>
                    <dim>256</dim>
                    <dim>5</dim>
                    <dim>5</dim>
                </port>
            </output>
        </layer>
        <layer name="conv7_2_mbox_priorbox" type="PriorBox" precision="FP32" id="282">
            <data min_size="162.000000" max_size="213.000000" aspect_ratio="2.000000,3.000000" flip="1" clip="0" variance="0.100000,0.100000,0.200000,0.200000" img_size="0" img_h="0" img_w="0" step="64.000000" step_h="0.000000" step_w="0.000000" offset="0.500000"/>
            <input>
                <port id="588">
                    <dim>1</dim>
                    <dim>256</dim>
                    <dim>5</dim>
                    <dim>5</dim>
                </port>
                <port id="589">
                    <dim>1</dim>
                    <dim>3</dim>
                    <dim>300</dim>
                    <dim>300</dim>
                </port>
            </input>
            <output>
                <port id="590">
                    <dim>1</dim>
                    <dim>2</dim>
                    <dim>600</dim>
                </port>
            </output>
        </layer>
        <layer name="conv7_2_mbox_conf" type="Convolution" precision="FP32" id="279">
            <convolution_data stride-x="1" stride-y="1" pad-x="1" pad-y="1" kernel-x="3" kernel-y="3" output="126" group="1"/>
            <input>
                <port id="582">
                    <dim>1</dim>
                    <dim>256</dim>
                    <dim>5</dim>
                    <dim>5</dim>
                </port>
            </input>
            <output>
                <port id="583">
                    <dim>1</dim>
                    <dim>126</dim>
                    <dim>5</dim>
                    <dim>5</dim>
                </port>
            </output>
            <weights offset="41854112" size="1161216"/>
            <biases offset="43015328" size="504"/>
        </layer>
        <layer name="conv7_2_mbox_conf_perm" type="Permute" precision="FP32" id="280">
            <data order="0,2,3,1"/>
            <input>
                <port id="584">
                    <dim>1</dim>
                    <dim>126</dim>
                    <dim>5</dim>
                    <dim>5</dim>
                </port>
            </input>
            <output>
                <port id="585">
                    <dim>1</dim>
                    <dim>5</dim>
                    <dim>5</dim>
                    <dim>126</dim>
                </port>
            </output>
        </layer>
        <layer name="conv7_2_mbox_conf_flat" type="Flatten" precision="FP32" id="281">
            <data axis="1" end_axis="-1"/>
            <input>
                <port id="586">
                    <dim>1</dim>
                    <dim>5</dim>
                    <dim>5</dim>
                    <dim>126</dim>
                </port>
            </input>
            <output>
                <port id="587">
                    <dim>1</dim>
                    <dim>3150</dim>
                </port>
            </output>
        </layer>
        <layer name="conv7_2_mbox_loc" type="Convolution" precision="FP32" id="276">
            <convolution_data stride-x="1" stride-y="1" pad-x="1" pad-y="1" kernel-x="3" kernel-y="3" output="24" group="1"/>
            <input>
                <port id="576">
                    <dim>1</dim>
                    <dim>256</dim>
                    <dim>5</dim>
                    <dim>5</dim>
                </port>
            </input>
            <output>
                <port id="577">
                    <dim>1</dim>
                    <dim>24</dim>
                    <dim>5</dim>
                    <dim>5</dim>
                </port>
            </output>
            <weights offset="41632832" size="221184"/>
            <biases offset="41854016" size="96"/>
        </layer>
        <layer name="conv7_2_mbox_loc_perm" type="Permute" precision="FP32" id="277">
            <data order="0,2,3,1"/>
            <input>
                <port id="578">
                    <dim>1</dim>
                    <dim>24</dim>
                    <dim>5</dim>
                    <dim>5</dim>
                </port>
            </input>
            <output>
                <port id="579">
                    <dim>1</dim>
                    <dim>5</dim>
                    <dim>5</dim>
                    <dim>24</dim>
                </port>
            </output>
        </layer>
        <layer name="conv7_2_mbox_loc_flat" type="Flatten" precision="FP32" id="278">
            <data axis="1" end_axis="-1"/>
            <input>
                <port id="580">
                    <dim>1</dim>
                    <dim>5</dim>
                    <dim>5</dim>
                    <dim>24</dim>
                </port>
            </input>
            <output>
                <port id="581">
                    <dim>1</dim>
                    <dim>600</dim>
                </port>
            </output>
        </layer>
        <layer name="conv8_1" type="Convolution" precision="FP32" id="247">
            <convolution_data stride-x="1" stride-y="1" pad-x="0" pad-y="0" kernel-x="1" kernel-y="1" output="128" group="1"/>
            <input>
                <port id="515">
                    <dim>1</dim>
                    <dim>256</dim>
                    <dim>5</dim>
                    <dim>5</dim>
                </port>
            </input>
            <output>
                <port id="516">
                    <dim>1</dim>
                    <dim>128</dim>
                    <dim>5</dim>
                    <dim>5</dim>
                </port>
            </output>
            <weights offset="29560320" size="131072"/>
            <biases offset="29691392" size="512"/>
        </layer>
        <layer name="conv8_1_relu" type="ReLU" precision="FP32" id="248">
            <input>
                <port id="517">
                    <dim>1</dim>
                    <dim>128</dim>
                    <dim>5</dim>
                    <dim>5</dim>
                </port>
            </input>
            <output>
                <port id="518">
                    <dim>1</dim>
                    <dim>128</dim>
                    <dim>5</dim>
                    <dim>5</dim>
                </port>
            </output>
        </layer>
        <layer name="conv8_2" type="Convolution" precision="FP32" id="249">
            <convolution_data stride-x="1" stride-y="1" pad-x="0" pad-y="0" kernel-x="3" kernel-y="3" output="256" group="1"/>
            <input>
                <port id="519">
                    <dim>1</dim>
                    <dim>128</dim>
                    <dim>5</dim>
                    <dim>5</dim>
                </port>
            </input>
            <output>
                <port id="520">
                    <dim>1</dim>
                    <dim>256</dim>
                    <dim>3</dim>
                    <dim>3</dim>
                </port>
            </output>
            <weights offset="29691904" size="1179648"/>
            <biases offset="30871552" size="1024"/>
        </layer>
        <layer name="conv8_2_relu" type="ReLU" precision="FP32" id="250">
            <input>
                <port id="521">
                    <dim>1</dim>
                    <dim>256</dim>
                    <dim>3</dim>
                    <dim>3</dim>
                </port>
            </input>
            <output>
                <port id="522">
                    <dim>1</dim>
                    <dim>256</dim>
                    <dim>3</dim>
                    <dim>3</dim>
                </port>
            </output>
        </layer>
        <layer name="conv8_2_mbox_priorbox" type="PriorBox" precision="FP32" id="289">
            <data min_size="213.000000" max_size="264.000000" aspect_ratio="2.000000" flip="1" clip="0" variance="0.100000,0.100000,0.200000,0.200000" img_size="0" img_h="0" img_w="0" step="100.000000" step_h="0.000000" step_w="0.000000" offset="0.500000"/>
            <input>
                <port id="603">
                    <dim>1</dim>
                    <dim>256</dim>
                    <dim>3</dim>
                    <dim>3</dim>
                </port>
                <port id="604">
                    <dim>1</dim>
                    <dim>3</dim>
                    <dim>300</dim>
                    <dim>300</dim>
                </port>
            </input>
            <output>
                <port id="605">
                    <dim>1</dim>
                    <dim>2</dim>
                    <dim>144</dim>
                </port>
            </output>
        </layer>
        <layer name="conv8_2_mbox_conf" type="Convolution" precision="FP32" id="286">
            <convolution_data stride-x="1" stride-y="1" pad-x="1" pad-y="1" kernel-x="3" kernel-y="3" output="84" group="1"/>
            <input>
                <port id="597">
                    <dim>1</dim>
                    <dim>256</dim>
                    <dim>3</dim>
                    <dim>3</dim>
                </port>
            </input>
            <output>
                <port id="598">
                    <dim>1</dim>
                    <dim>84</dim>
                    <dim>3</dim>
                    <dim>3</dim>
                </port>
            </output>
            <weights offset="43163352" size="774144"/>
            <biases offset="43937496" size="336"/>
        </layer>
        <layer name="conv8_2_mbox_conf_perm" type="Permute" precision="FP32" id="287">
            <data order="0,2,3,1"/>
            <input>
                <port id="599">
                    <dim>1</dim>
                    <dim>84</dim>
                    <dim>3</dim>
                    <dim>3</dim>
                </port>
            </input>
            <output>
                <port id="600">
                    <dim>1</dim>
                    <dim>3</dim>
                    <dim>3</dim>
                    <dim>84</dim>
                </port>
            </output>
        </layer>
        <layer name="conv8_2_mbox_conf_flat" type="Flatten" precision="FP32" id="288">
            <data axis="1" end_axis="-1"/>
            <input>
                <port id="601">
                    <dim>1</dim>
                    <dim>3</dim>
                    <dim>3</dim>
                    <dim>84</dim>
                </port>
            </input>
            <output>
                <port id="602">
                    <dim>1</dim>
                    <dim>756</dim>
                </port>
            </output>
        </layer>
        <layer name="conv8_2_mbox_loc" type="Convolution" precision="FP32" id="283">
            <convolution_data stride-x="1" stride-y="1" pad-x="1" pad-y="1" kernel-x="3" kernel-y="3" output="16" group="1"/>
            <input>
                <port id="591">
                    <dim>1</dim>
                    <dim>256</dim>
                    <dim>3</dim>
                    <dim>3</dim>
                </port>
            </input>
            <output>
                <port id="592">
                    <dim>1</dim>
                    <dim>16</dim>
                    <dim>3</dim>
                    <dim>3</dim>
                </port>
            </output>
            <weights offset="43015832" size="147456"/>
            <biases offset="43163288" size="64"/>
        </layer>
        <layer name="conv8_2_mbox_loc_perm" type="Permute" precision="FP32" id="284">
            <data order="0,2,3,1"/>
            <input>
                <port id="593">
                    <dim>1</dim>
                    <dim>16</dim>
                    <dim>3</dim>
                    <dim>3</dim>
                </port>
            </input>
            <output>
                <port id="594">
                    <dim>1</dim>
                    <dim>3</dim>
                    <dim>3</dim>
                    <dim>16</dim>
                </port>
            </output>
        </layer>
        <layer name="conv8_2_mbox_loc_flat" type="Flatten" precision="FP32" id="285">
            <data axis="1" end_axis="-1"/>
            <input>
                <port id="595">
                    <dim>1</dim>
                    <dim>3</dim>
                    <dim>3</dim>
                    <dim>16</dim>
                </port>
            </input>
            <output>
                <port id="596">
                    <dim>1</dim>
                    <dim>144</dim>
                </port>
            </output>
        </layer>
        <layer name="conv9_1" type="Convolution" precision="FP32" id="251">
            <convolution_data stride-x="1" stride-y="1" pad-x="0" pad-y="0" kernel-x="1" kernel-y="1" output="128" group="1"/>
            <input>
                <port id="523">
                    <dim>1</dim>
                    <dim>256</dim>
                    <dim>3</dim>
                    <dim>3</dim>
                </port>
            </input>
            <output>
                <port id="524">
                    <dim>1</dim>
                    <dim>128</dim>
                    <dim>3</dim>
                    <dim>3</dim>
                </port>
            </output>
            <weights offset="30872576" size="131072"/>
            <biases offset="31003648" size="512"/>
        </layer>
        <layer name="conv9_1_relu" type="ReLU" precision="FP32" id="252">
            <input>
                <port id="525">
                    <dim>1</dim>
                    <dim>128</dim>
                    <dim>3</dim>
                    <dim>3</dim>
                </port>
            </input>
            <output>
                <port id="526">
                    <dim>1</dim>
                    <dim>128</dim>
                    <dim>3</dim>
                    <dim>3</dim>
                </port>
            </output>
        </layer>
        <layer name="conv9_2" type="Convolution" precision="FP32" id="253">
            <convolution_data stride-x="1" stride-y="1" pad-x="0" pad-y="0" kernel-x="3" kernel-y="3" output="256" group="1"/>
            <input>
                <port id="527">
                    <dim>1</dim>
                    <dim>128</dim>
                    <dim>3</dim>
                    <dim>3</dim>
                </port>
            </input>
            <output>
                <port id="528">
                    <dim>1</dim>
                    <dim>256</dim>
                    <dim>1</dim>
                    <dim>1</dim>
                </port>
            </output>
            <weights offset="31004160" size="1179648"/>
            <biases offset="32183808" size="1024"/>
        </layer>
        <layer name="conv9_2_relu" type="ReLU" precision="FP32" id="254">
            <input>
                <port id="529">
                    <dim>1</dim>
                    <dim>256</dim>
                    <dim>1</dim>
                    <dim>1</dim>
                </port>
            </input>
            <output>
                <port id="530">
                    <dim>1</dim>
                    <dim>256</dim>
                    <dim>1</dim>
                    <dim>1</dim>
                </port>
            </output>
        </layer>
        <layer name="conv9_2_mbox_priorbox" type="PriorBox" precision="FP32" id="296">
            <data min_size="264.000000" max_size="315.000000" aspect_ratio="2.000000" flip="1" clip="0" variance="0.100000,0.100000,0.200000,0.200000" img_size="0" img_h="0" img_w="0" step="300.000000" step_h="0.000000" step_w="0.000000" offset="0.500000"/>
            <input>
                <port id="618">
                    <dim>1</dim>
                    <dim>256</dim>
                    <dim>1</dim>
                    <dim>1</dim>
                </port>
                <port id="619">
                    <dim>1</dim>
                    <dim>3</dim>
                    <dim>300</dim>
                    <dim>300</dim>
                </port>
            </input>
            <output>
                <port id="620">
                    <dim>1</dim>
                    <dim>2</dim>
                    <dim>16</dim>
                </port>
            </output>
        </layer>
        <layer name="conv9_2_mbox_conf" type="Convolution" precision="FP32" id="293">
            <convolution_data stride-x="1" stride-y="1" pad-x="1" pad-y="1" kernel-x="3" kernel-y="3" output="84" group="1"/>
            <input>
                <port id="612">
                    <dim>1</dim>
                    <dim>256</dim>
                    <dim>1</dim>
                    <dim>1</dim>
                </port>
            </input>
            <output>
                <port id="613">
                    <dim>1</dim>
                    <dim>84</dim>
                    <dim>1</dim>
                    <dim>1</dim>
                </port>
            </output>
            <weights offset="44085352" size="774144"/>
            <biases offset="44859496" size="336"/>
        </layer>
        <layer name="conv9_2_mbox_conf_perm" type="Permute" precision="FP32" id="294">
            <data order="0,2,3,1"/>
            <input>
                <port id="614">
                    <dim>1</dim>
                    <dim>84</dim>
                    <dim>1</dim>
                    <dim>1</dim>
                </port>
            </input>
            <output>
                <port id="615">
                    <dim>1</dim>
                    <dim>1</dim>
                    <dim>1</dim>
                    <dim>84</dim>
                </port>
            </output>
        </layer>
        <layer name="conv9_2_mbox_conf_flat" type="Flatten" precision="FP32" id="295">
            <data axis="1" end_axis="-1"/>
            <input>
                <port id="616">
                    <dim>1</dim>
                    <dim>1</dim>
                    <dim>1</dim>
                    <dim>84</dim>
                </port>
            </input>
            <output>
                <port id="617">
                    <dim>1</dim>
                    <dim>84</dim>
                </port>
            </output>
        </layer>
        <layer name="conv9_2_mbox_loc" type="Convolution" precision="FP32" id="290">
            <convolution_data stride-x="1" stride-y="1" pad-x="1" pad-y="1" kernel-x="3" kernel-y="3" output="16" group="1"/>
            <input>
                <port id="606">
                    <dim>1</dim>
                    <dim>256</dim>
                    <dim>1</dim>
                    <dim>1</dim>
                </port>
            </input>
            <output>
                <port id="607">
                    <dim>1</dim>
                    <dim>16</dim>
                    <dim>1</dim>
                    <dim>1</dim>
                </port>
            </output>
            <weights offset="43937832" size="147456"/>
            <biases offset="44085288" size="64"/>
        </layer>
        <layer name="conv9_2_mbox_loc_perm" type="Permute" precision="FP32" id="291">
            <data order="0,2,3,1"/>
            <input>
                <port id="608">
                    <dim>1</dim>
                    <dim>16</dim>
                    <dim>1</dim>
                    <dim>1</dim>
                </port>
            </input>
            <output>
                <port id="609">
                    <dim>1</dim>
                    <dim>1</dim>
                    <dim>1</dim>
                    <dim>16</dim>
                </port>
            </output>
        </layer>
        <layer name="conv9_2_mbox_loc_flat" type="Flatten" precision="FP32" id="292">
            <data axis="1" end_axis="-1"/>
            <input>
                <port id="610">
                    <dim>1</dim>
                    <dim>1</dim>
                    <dim>1</dim>
                    <dim>16</dim>
                </port>
            </input>
            <output>
                <port id="611">
                    <dim>1</dim>
                    <dim>16</dim>
                </port>
            </output>
        </layer>
        <layer name="inception_4e_pool" type="Pooling" precision="FP32" id="237">
            <pooling_data kernel-x="3" kernel-y="3" pad-x="0" pad-y="0" stride-x="2" stride-y="2" rounding-type="ceil" pool-method="max"/>
            <input>
                <port id="493">
                    <dim>1</dim>
                    <dim>576</dim>
                    <dim>18</dim>
                    <dim>18</dim>
                </port>
            </input>
            <output>
                <port id="494">
                    <dim>1</dim>
                    <dim>576</dim>
                    <dim>9</dim>
                    <dim>9</dim>
                </port>
            </output>
        </layer>
        <layer name="inception_4e_double3x3_reduce" type="Convolution" precision="FP32" id="225">
            <convolution_data stride-x="1" stride-y="1" pad-x="0" pad-y="0" kernel-x="1" kernel-y="1" output="192" group="1"/>
            <input>
                <port id="469">
                    <dim>1</dim>
                    <dim>576</dim>
                    <dim>18</dim>
                    <dim>18</dim>
                </port>
            </input>
            <output>
                <port id="470">
                    <dim>1</dim>
                    <dim>192</dim>
                    <dim>18</dim>
                    <dim>18</dim>
                </port>
            </output>
            <weights offset="18231552" size="442368"/>
            <biases offset="18673920" size="768"/>
        </layer>
        <layer name="inception_4e_double3x3_reduce_bn_sc_relu" type="ReLU" precision="FP32" id="228">
            <input>
                <port id="475">
                    <dim>1</dim>
                    <dim>192</dim>
                    <dim>18</dim>
                    <dim>18</dim>
                </port>
            </input>
            <output>
                <port id="476">
                    <dim>1</dim>
                    <dim>192</dim>
                    <dim>18</dim>
                    <dim>18</dim>
                </port>
            </output>
        </layer>
        <layer name="inception_4e_double3x3a" type="Convolution" precision="FP32" id="229">
            <convolution_data stride-x="1" stride-y="1" pad-x="1" pad-y="1" kernel-x="3" kernel-y="3" output="256" group="1"/>
            <input>
                <port id="477">
                    <dim>1</dim>
                    <dim>192</dim>
                    <dim>18</dim>
                    <dim>18</dim>
                </port>
            </input>
            <output>
                <port id="478">
                    <dim>1</dim>
                    <dim>256</dim>
                    <dim>18</dim>
                    <dim>18</dim>
                </port>
            </output>
            <weights offset="18674688" size="1769472"/>
            <biases offset="20444160" size="1024"/>
        </layer>
        <layer name="inception_4e_double3x3a_bn_sc_relu" type="ReLU" precision="FP32" id="232">
            <input>
                <port id="483">
                    <dim>1</dim>
                    <dim>256</dim>
                    <dim>18</dim>
                    <dim>18</dim>
                </port>
            </input>
            <output>
                <port id="484">
                    <dim>1</dim>
                    <dim>256</dim>
                    <dim>18</dim>
                    <dim>18</dim>
                </port>
            </output>
        </layer>
        <layer name="inception_4e_double3x3b" type="Convolution" precision="FP32" id="233">
            <convolution_data stride-x="2" stride-y="2" pad-x="1" pad-y="1" kernel-x="3" kernel-y="3" output="256" group="1"/>
            <input>
                <port id="485">
                    <dim>1</dim>
                    <dim>256</dim>
                    <dim>18</dim>
                    <dim>18</dim>
                </port>
            </input>
            <output>
                <port id="486">
                    <dim>1</dim>
                    <dim>256</dim>
                    <dim>9</dim>
                    <dim>9</dim>
                </port>
            </output>
            <weights offset="20445184" size="2359296"/>
            <biases offset="22804480" size="1024"/>
        </layer>
        <layer name="inception_4e_double3x3b_bn_sc_relu" type="ReLU" precision="FP32" id="236">
            <input>
                <port id="491">
                    <dim>1</dim>
                    <dim>256</dim>
                    <dim>9</dim>
                    <dim>9</dim>
                </port>
            </input>
            <output>
                <port id="492">
                    <dim>1</dim>
                    <dim>256</dim>
                    <dim>9</dim>
                    <dim>9</dim>
                </port>
            </output>
        </layer>
        <layer name="inception_4e_3x3_reduce" type="Convolution" precision="FP32" id="217">
            <convolution_data stride-x="1" stride-y="1" pad-x="0" pad-y="0" kernel-x="1" kernel-y="1" output="128" group="1"/>
            <input>
                <port id="453">
                    <dim>1</dim>
                    <dim>576</dim>
                    <dim>18</dim>
                    <dim>18</dim>
                </port>
            </input>
            <output>
                <port id="454">
                    <dim>1</dim>
                    <dim>128</dim>
                    <dim>18</dim>
                    <dim>18</dim>
                </port>
            </output>
            <weights offset="17050624" size="294912"/>
            <biases offset="17345536" size="512"/>
        </layer>
        <layer name="inception_4e_3x3_reduce_bn_sc_relu" type="ReLU" precision="FP32" id="220">
            <input>
                <port id="459">
                    <dim>1</dim>
                    <dim>128</dim>
                    <dim>18</dim>
                    <dim>18</dim>
                </port>
            </input>
            <output>
                <port id="460">
                    <dim>1</dim>
                    <dim>128</dim>
                    <dim>18</dim>
                    <dim>18</dim>
                </port>
            </output>
        </layer>
        <layer name="inception_4e_3x3" type="Convolution" precision="FP32" id="221">
            <convolution_data stride-x="2" stride-y="2" pad-x="1" pad-y="1" kernel-x="3" kernel-y="3" output="192" group="1"/>
            <input>
                <port id="461">
                    <dim>1</dim>
                    <dim>128</dim>
                    <dim>18</dim>
                    <dim>18</dim>
                </port>
            </input>
            <output>
                <port id="462">
                    <dim>1</dim>
                    <dim>192</dim>
                    <dim>9</dim>
                    <dim>9</dim>
                </port>
            </output>
            <weights offset="17346048" size="884736"/>
            <biases offset="18230784" size="768"/>
        </layer>
        <layer name="inception_4e_3x3_bn_sc_relu" type="ReLU" precision="FP32" id="224">
            <input>
                <port id="467">
                    <dim>1</dim>
                    <dim>192</dim>
                    <dim>9</dim>
                    <dim>9</dim>
                </port>
            </input>
            <output>
                <port id="468">
                    <dim>1</dim>
                    <dim>192</dim>
                    <dim>9</dim>
                    <dim>9</dim>
                </port>
            </output>
        </layer>
        <layer name="inception_4e_output" type="Concat" precision="FP32" id="238">
            <concat_data axis="1"/>
            <input>
                <port id="495">
                    <dim>1</dim>
                    <dim>192</dim>
                    <dim>9</dim>
                    <dim>9</dim>
                </port>
                <port id="496">
                    <dim>1</dim>
                    <dim>256</dim>
                    <dim>9</dim>
                    <dim>9</dim>
                </port>
                <port id="497">
                    <dim>1</dim>
                    <dim>576</dim>
                    <dim>9</dim>
                    <dim>9</dim>
                </port>
            </input>
            <output>
                <port id="498">
                    <dim>1</dim>
                    <dim>1024</dim>
                    <dim>9</dim>
                    <dim>9</dim>
                </port>
            </output>
        </layer>
        <layer name="fc7_mbox_priorbox" type="PriorBox" precision="FP32" id="268">
            <data min_size="60.000000" max_size="111.000000" aspect_ratio="2.000000,3.000000" flip="1" clip="0" variance="0.100000,0.100000,0.200000,0.200000" img_size="0" img_h="0" img_w="0" step="16.000000" step_h="0.000000" step_w="0.000000" offset="0.500000"/>
            <input>
                <port id="558">
                    <dim>1</dim>
                    <dim>1024</dim>
                    <dim>9</dim>
                    <dim>9</dim>
                </port>
                <port id="559">
                    <dim>1</dim>
                    <dim>3</dim>
                    <dim>300</dim>
                    <dim>300</dim>
                </port>
            </input>
            <output>
                <port id="560">
                    <dim>1</dim>
                    <dim>2</dim>
                    <dim>1944</dim>
                </port>
            </output>
        </layer>
        <layer name="mbox_priorbox" type="Concat" precision="FP32" id="299">
            <concat_data axis="2"/>
            <input>
                <port id="635">
                    <dim>1</dim>
                    <dim>2</dim>
                    <dim>21904</dim>
                </port>
                <port id="636">
                    <dim>1</dim>
                    <dim>2</dim>
                    <dim>1944</dim>
                </port>
                <port id="637">
                    <dim>1</dim>
                    <dim>2</dim>
                    <dim>1944</dim>
                </port>
                <port id="638">
                    <dim>1</dim>
                    <dim>2</dim>
                    <dim>600</dim>
                </port>
                <port id="639">
                    <dim>1</dim>
                    <dim>2</dim>
                    <dim>144</dim>
                </port>
                <port id="640">
                    <dim>1</dim>
                    <dim>2</dim>
                    <dim>16</dim>
                </port>
            </input>
            <output>
                <port id="641">
                    <dim>1</dim>
                    <dim>2</dim>
                    <dim>26552</dim>
                </port>
            </output>
        </layer>
        <layer name="fc7_mbox_conf" type="Convolution" precision="FP32" id="265">
            <convolution_data stride-x="1" stride-y="1" pad-x="1" pad-y="1" kernel-x="3" kernel-y="3" output="126" group="1"/>
            <input>
                <port id="552">
                    <dim>1</dim>
                    <dim>1024</dim>
                    <dim>9</dim>
                    <dim>9</dim>
                </port>
            </input>
            <output>
                <port id="553">
                    <dim>1</dim>
                    <dim>126</dim>
                    <dim>9</dim>
                    <dim>9</dim>
                </port>
            </output>
            <weights offset="34222064" size="4644864"/>
            <biases offset="38866928" size="504"/>
        </layer>
        <layer name="fc7_mbox_conf_perm" type="Permute" precision="FP32" id="266">
            <data order="0,2,3,1"/>
            <input>
                <port id="554">
                    <dim>1</dim>
                    <dim>126</dim>
                    <dim>9</dim>
                    <dim>9</dim>
                </port>
            </input>
            <output>
                <port id="555">
                    <dim>1</dim>
                    <dim>9</dim>
                    <dim>9</dim>
                    <dim>126</dim>
                </port>
            </output>
        </layer>
        <layer name="fc7_mbox_conf_flat" type="Flatten" precision="FP32" id="267">
            <data axis="1" end_axis="-1"/>
            <input>
                <port id="556">
                    <dim>1</dim>
                    <dim>9</dim>
                    <dim>9</dim>
                    <dim>126</dim>
                </port>
            </input>
            <output>
                <port id="557">
                    <dim>1</dim>
                    <dim>10206</dim>
                </port>
            </output>
        </layer>
        <layer name="mbox_conf" type="Concat" precision="FP32" id="298">
            <concat_data axis="1"/>
            <input>
                <port id="628">
                    <dim>1</dim>
                    <dim>114996</dim>
                </port>
                <port id="629">
                    <dim>1</dim>
                    <dim>10206</dim>
                </port>
                <port id="630">
                    <dim>1</dim>
                    <dim>10206</dim>
                </port>
                <port id="631">
                    <dim>1</dim>
                    <dim>3150</dim>
                </port>
                <port id="632">
                    <dim>1</dim>
                    <dim>756</dim>
                </port>
                <port id="633">
                    <dim>1</dim>
                    <dim>84</dim>
                </port>
            </input>
            <output>
                <port id="634">
                    <dim>1</dim>
                    <dim>139398</dim>
                </port>
            </output>
        </layer>
        <layer name="mbox_conf_reshape" type="Reshape" precision="FP32" id="300">
            <data dim="0,-1,21" axis="0" num_axes="-1"/>
            <input>
                <port id="642">
                    <dim>1</dim>
                    <dim>139398</dim>
                </port>
            </input>
            <output>
                <port id="643">
                    <dim>1</dim>
                    <dim>6638</dim>
                    <dim>21</dim>
                </port>
            </output>
        </layer>
        <layer name="mbox_conf_softmax" type="SoftMax" precision="FP32" id="301">
            <data engine="caffe.SoftmaxParameter.DEFAULT" axis="2"/>
            <input>
                <port id="644">
                    <dim>1</dim>
                    <dim>6638</dim>
                    <dim>21</dim>
                </port>
            </input>
            <output>
                <port id="645">
                    <dim>1</dim>
                    <dim>6638</dim>
                    <dim>21</dim>
                </port>
            </output>
        </layer>
        <layer name="mbox_conf_flatten" type="Flatten" precision="FP32" id="302">
            <data axis="1" end_axis="-1"/>
            <input>
                <port id="646">
                    <dim>1</dim>
                    <dim>6638</dim>
                    <dim>21</dim>
                </port>
            </input>
            <output>
                <port id="647">
                    <dim>1</dim>
                    <dim>139398</dim>
                </port>
            </output>
        </layer>
        <layer name="fc7_mbox_loc" type="Convolution" precision="FP32" id="262">
            <convolution_data stride-x="1" stride-y="1" pad-x="1" pad-y="1" kernel-x="3" kernel-y="3" output="24" group="1"/>
            <input>
                <port id="546">
                    <dim>1</dim>
                    <dim>1024</dim>
                    <dim>9</dim>
                    <dim>9</dim>
                </port>
            </input>
            <output>
                <port id="547">
                    <dim>1</dim>
                    <dim>24</dim>
                    <dim>9</dim>
                    <dim>9</dim>
                </port>
            </output>
            <weights offset="33337232" size="884736"/>
            <biases offset="34221968" size="96"/>
        </layer>
        <layer name="fc7_mbox_loc_perm" type="Permute" precision="FP32" id="263">
            <data order="0,2,3,1"/>
            <input>
                <port id="548">
                    <dim>1</dim>
                    <dim>24</dim>
                    <dim>9</dim>
                    <dim>9</dim>
                </port>
            </input>
            <output>
                <port id="549">
                    <dim>1</dim>
                    <dim>9</dim>
                    <dim>9</dim>
                    <dim>24</dim>
                </port>
            </output>
        </layer>
        <layer name="fc7_mbox_loc_flat" type="Flatten" precision="FP32" id="264">
            <data axis="1" end_axis="-1"/>
            <input>
                <port id="550">
                    <dim>1</dim>
                    <dim>9</dim>
                    <dim>9</dim>
                    <dim>24</dim>
                </port>
            </input>
            <output>
                <port id="551">
                    <dim>1</dim>
                    <dim>1944</dim>
                </port>
            </output>
        </layer>
        <layer name="mbox_loc" type="Concat" precision="FP32" id="297">
            <concat_data axis="1"/>
            <input>
                <port id="621">
                    <dim>1</dim>
                    <dim>21904</dim>
                </port>
                <port id="622">
                    <dim>1</dim>
                    <dim>1944</dim>
                </port>
                <port id="623">
                    <dim>1</dim>
                    <dim>1944</dim>
                </port>
                <port id="624">
                    <dim>1</dim>
                    <dim>600</dim>
                </port>
                <port id="625">
                    <dim>1</dim>
                    <dim>144</dim>
                </port>
                <port id="626">
                    <dim>1</dim>
                    <dim>16</dim>
                </port>
            </input>
            <output>
                <port id="627">
                    <dim>1</dim>
                    <dim>26552</dim>
                </port>
            </output>
        </layer>
        <layer name="detection_out" type="DetectionOutput" precision="FP32" id="303">
            <data num_classes="21" share_location="1" background_label_id="0" nms_threshold="0.450000" top_k="400" eta="1.000000" output_directory="" output_name_prefix="" output_format="" label_map_file="" name_size_file="" num_test_image="0" prob="1.000000" resize_mode="caffe.ResizeParameter.WARP" height="0" width="0" height_scale="0" width_scale="0" pad_mode="caffe.ResizeParameter.CONSTANT" pad_value="#" interp_mode="#" code_type="caffe.PriorBoxParameter.CENTER_SIZE" variance_encoded_in_target="0" keep_top_k="200" confidence_threshold="0.010000" visualize="0" visualize_threshold="0.000000" save_file=""/>
            <input>
                <port id="648">
                    <dim>1</dim>
                    <dim>26552</dim>
                </port>
                <port id="649">
                    <dim>1</dim>
                    <dim>139398</dim>
                </port>
                <port id="650">
                    <dim>1</dim>
                    <dim>2</dim>
                    <dim>26552</dim>
                </port>
            </input>
            <output>
                <port id="651">
                    <dim>1</dim>
                    <dim>1</dim>
                    <dim>200</dim>
                    <dim>7</dim>
                </port>
            </output>
        </layer>
    </layers>
    <edges>
        <edge from-layer="0" from-port="0" to-layer="1" to-port="1"/>
        <edge from-layer="4" from-port="8" to-layer="5" to-port="9"/>
        <edge from-layer="5" from-port="10" to-layer="6" to-port="11"/>
        <edge from-layer="9" from-port="18" to-layer="10" to-port="19"/>
        <edge from-layer="13" from-port="26" to-layer="14" to-port="27"/>
        <edge from-layer="14" from-port="28" to-layer="15" to-port="29"/>
        <edge from-layer="14" from-port="28" to-layer="19" to-port="37"/>
        <edge from-layer="22" from-port="44" to-layer="23" to-port="45"/>
        <edge from-layer="14" from-port="28" to-layer="27" to-port="53"/>
        <edge from-layer="30" from-port="60" to-layer="31" to-port="61"/>
        <edge from-layer="34" from-port="68" to-layer="35" to-port="69"/>
        <edge from-layer="14" from-port="28" to-layer="39" to-port="77"/>
        <edge from-layer="39" from-port="78" to-layer="40" to-port="79"/>
        <edge from-layer="18" from-port="36" to-layer="44" to-port="87"/>
        <edge from-layer="26" from-port="52" to-layer="44" to-port="88"/>
        <edge from-layer="38" from-port="76" to-layer="44" to-port="89"/>
        <edge from-layer="43" from-port="86" to-layer="44" to-port="90"/>
        <edge from-layer="44" from-port="91" to-layer="45" to-port="92"/>
        <edge from-layer="44" from-port="91" to-layer="49" to-port="100"/>
        <edge from-layer="52" from-port="107" to-layer="53" to-port="108"/>
        <edge from-layer="44" from-port="91" to-layer="57" to-port="116"/>
        <edge from-layer="60" from-port="123" to-layer="61" to-port="124"/>
        <edge from-layer="64" from-port="131" to-layer="65" to-port="132"/>
        <edge from-layer="44" from-port="91" to-layer="69" to-port="140"/>
        <edge from-layer="69" from-port="141" to-layer="70" to-port="142"/>
        <edge from-layer="48" from-port="99" to-layer="74" to-port="150"/>
        <edge from-layer="56" from-port="115" to-layer="74" to-port="151"/>
        <edge from-layer="68" from-port="139" to-layer="74" to-port="152"/>
        <edge from-layer="73" from-port="149" to-layer="74" to-port="153"/>
        <edge from-layer="74" from-port="154" to-layer="75" to-port="155"/>
        <edge from-layer="78" from-port="162" to-layer="79" to-port="163"/>
        <edge from-layer="74" from-port="154" to-layer="83" to-port="171"/>
        <edge from-layer="86" from-port="178" to-layer="87" to-port="179"/>
        <edge from-layer="90" from-port="186" to-layer="91" to-port="187"/>
        <edge from-layer="74" from-port="154" to-layer="95" to-port="195"/>
        <edge from-layer="82" from-port="170" to-layer="96" to-port="197"/>
        <edge from-layer="94" from-port="194" to-layer="96" to-port="198"/>
        <edge from-layer="95" from-port="196" to-layer="96" to-port="199"/>
        <edge from-layer="96" from-port="200" to-layer="97" to-port="201"/>
        <edge from-layer="96" from-port="200" to-layer="101" to-port="209"/>
        <edge from-layer="104" from-port="216" to-layer="105" to-port="217"/>
        <edge from-layer="96" from-port="200" to-layer="109" to-port="225"/>
        <edge from-layer="112" from-port="232" to-layer="113" to-port="233"/>
        <edge from-layer="116" from-port="240" to-layer="117" to-port="241"/>
        <edge from-layer="96" from-port="200" to-layer="121" to-port="249"/>
        <edge from-layer="121" from-port="250" to-layer="122" to-port="251"/>
        <edge from-layer="100" from-port="208" to-layer="126" to-port="259"/>
        <edge from-layer="108" from-port="224" to-layer="126" to-port="260"/>
        <edge from-layer="120" from-port="248" to-layer="126" to-port="261"/>
        <edge from-layer="125" from-port="258" to-layer="126" to-port="262"/>
        <edge from-layer="126" from-port="263" to-layer="127" to-port="264"/>
        <edge from-layer="126" from-port="263" to-layer="131" to-port="272"/>
        <edge from-layer="134" from-port="279" to-layer="135" to-port="280"/>
        <edge from-layer="126" from-port="263" to-layer="139" to-port="288"/>
        <edge from-layer="142" from-port="295" to-layer="143" to-port="296"/>
        <edge from-layer="146" from-port="303" to-layer="147" to-port="304"/>
        <edge from-layer="126" from-port="263" to-layer="151" to-port="312"/>
        <edge from-layer="151" from-port="313" to-layer="152" to-port="314"/>
        <edge from-layer="130" from-port="271" to-layer="156" to-port="322"/>
        <edge from-layer="138" from-port="287" to-layer="156" to-port="323"/>
        <edge from-layer="150" from-port="311" to-layer="156" to-port="324"/>
        <edge from-layer="155" from-port="321" to-layer="156" to-port="325"/>
        <edge from-layer="156" from-port="326" to-layer="157" to-port="327"/>
        <edge from-layer="156" from-port="326" to-layer="161" to-port="335"/>
        <edge from-layer="164" from-port="342" to-layer="165" to-port="343"/>
        <edge from-layer="156" from-port="326" to-layer="169" to-port="351"/>
        <edge from-layer="172" from-port="358" to-layer="173" to-port="359"/>
        <edge from-layer="176" from-port="366" to-layer="177" to-port="367"/>
        <edge from-layer="156" from-port="326" to-layer="181" to-port="375"/>
        <edge from-layer="181" from-port="376" to-layer="182" to-port="377"/>
        <edge from-layer="160" from-port="334" to-layer="186" to-port="385"/>
        <edge from-layer="168" from-port="350" to-layer="186" to-port="386"/>
        <edge from-layer="180" from-port="374" to-layer="186" to-port="387"/>
        <edge from-layer="185" from-port="384" to-layer="186" to-port="388"/>
        <edge from-layer="186" from-port="389" to-layer="187" to-port="390"/>
        <edge from-layer="186" from-port="389" to-layer="191" to-port="398"/>
        <edge from-layer="194" from-port="405" to-layer="195" to-port="406"/>
        <edge from-layer="186" from-port="389" to-layer="199" to-port="414"/>
        <edge from-layer="202" from-port="421" to-layer="203" to-port="422"/>
        <edge from-layer="206" from-port="429" to-layer="207" to-port="430"/>
        <edge from-layer="186" from-port="389" to-layer="211" to-port="438"/>
        <edge from-layer="211" from-port="439" to-layer="212" to-port="440"/>
        <edge from-layer="190" from-port="397" to-layer="216" to-port="448"/>
        <edge from-layer="198" from-port="413" to-layer="216" to-port="449"/>
        <edge from-layer="210" from-port="437" to-layer="216" to-port="450"/>
        <edge from-layer="215" from-port="447" to-layer="216" to-port="451"/>
        <edge from-layer="216" from-port="452" to-layer="217" to-port="453"/>
        <edge from-layer="220" from-port="460" to-layer="221" to-port="461"/>
        <edge from-layer="216" from-port="452" to-layer="225" to-port="469"/>
        <edge from-layer="228" from-port="476" to-layer="229" to-port="477"/>
        <edge from-layer="232" from-port="484" to-layer="233" to-port="485"/>
        <edge from-layer="216" from-port="452" to-layer="237" to-port="493"/>
        <edge from-layer="224" from-port="468" to-layer="238" to-port="495"/>
        <edge from-layer="236" from-port="492" to-layer="238" to-port="496"/>
        <edge from-layer="237" from-port="494" to-layer="238" to-port="497"/>
        <edge from-layer="216" from-port="452" to-layer="239" to-port="499"/>
        <edge from-layer="239" from-port="500" to-layer="240" to-port="501"/>
        <edge from-layer="240" from-port="502" to-layer="241" to-port="503"/>
        <edge from-layer="241" from-port="504" to-layer="242" to-port="505"/>
        <edge from-layer="242" from-port="506" to-layer="243" to-port="507"/>
        <edge from-layer="243" from-port="508" to-layer="244" to-port="509"/>
        <edge from-layer="244" from-port="510" to-layer="245" to-port="511"/>
        <edge from-layer="245" from-port="512" to-layer="246" to-port="513"/>
        <edge from-layer="246" from-port="514" to-layer="247" to-port="515"/>
        <edge from-layer="247" from-port="516" to-layer="248" to-port="517"/>
        <edge from-layer="248" from-port="518" to-layer="249" to-port="519"/>
        <edge from-layer="249" from-port="520" to-layer="250" to-port="521"/>
        <edge from-layer="250" from-port="522" to-layer="251" to-port="523"/>
        <edge from-layer="251" from-port="524" to-layer="252" to-port="525"/>
        <edge from-layer="252" from-port="526" to-layer="253" to-port="527"/>
        <edge from-layer="253" from-port="528" to-layer="254" to-port="529"/>
        <edge from-layer="74" from-port="154" to-layer="255" to-port="531"/>
        <edge from-layer="255" from-port="532" to-layer="256" to-port="533"/>
        <edge from-layer="256" from-port="534" to-layer="257" to-port="535"/>
        <edge from-layer="74" from-port="154" to-layer="258" to-port="537"/>
        <edge from-layer="258" from-port="538" to-layer="259" to-port="539"/>
        <edge from-layer="259" from-port="540" to-layer="260" to-port="541"/>
        <edge from-layer="74" from-port="154" to-layer="261" to-port="543"/>
        <edge from-layer="0" from-port="0" to-layer="261" to-port="544"/>
        <edge from-layer="238" from-port="498" to-layer="262" to-port="546"/>
        <edge from-layer="262" from-port="547" to-layer="263" to-port="548"/>
        <edge from-layer="263" from-port="549" to-layer="264" to-port="550"/>
        <edge from-layer="238" from-port="498" to-layer="265" to-port="552"/>
        <edge from-layer="265" from-port="553" to-layer="266" to-port="554"/>
        <edge from-layer="266" from-port="555" to-layer="267" to-port="556"/>
        <edge from-layer="238" from-port="498" to-layer="268" to-port="558"/>
        <edge from-layer="0" from-port="0" to-layer="268" to-port="559"/>
        <edge from-layer="242" from-port="506" to-layer="269" to-port="561"/>
        <edge from-layer="269" from-port="562" to-layer="270" to-port="563"/>
        <edge from-layer="270" from-port="564" to-layer="271" to-port="565"/>
        <edge from-layer="242" from-port="506" to-layer="272" to-port="567"/>
        <edge from-layer="272" from-port="568" to-layer="273" to-port="569"/>
        <edge from-layer="273" from-port="570" to-layer="274" to-port="571"/>
        <edge from-layer="242" from-port="506" to-layer="275" to-port="573"/>
        <edge from-layer="0" from-port="0" to-layer="275" to-port="574"/>
        <edge from-layer="246" from-port="514" to-layer="276" to-port="576"/>
        <edge from-layer="276" from-port="577" to-layer="277" to-port="578"/>
        <edge from-layer="277" from-port="579" to-layer="278" to-port="580"/>
        <edge from-layer="246" from-port="514" to-layer="279" to-port="582"/>
        <edge from-layer="279" from-port="583" to-layer="280" to-port="584"/>
        <edge from-layer="280" from-port="585" to-layer="281" to-port="586"/>
        <edge from-layer="246" from-port="514" to-layer="282" to-port="588"/>
        <edge from-layer="0" from-port="0" to-layer="282" to-port="589"/>
        <edge from-layer="250" from-port="522" to-layer="283" to-port="591"/>
        <edge from-layer="283" from-port="592" to-layer="284" to-port="593"/>
        <edge from-layer="284" from-port="594" to-layer="285" to-port="595"/>
        <edge from-layer="250" from-port="522" to-layer="286" to-port="597"/>
        <edge from-layer="286" from-port="598" to-layer="287" to-port="599"/>
        <edge from-layer="287" from-port="600" to-layer="288" to-port="601"/>
        <edge from-layer="250" from-port="522" to-layer="289" to-port="603"/>
        <edge from-layer="0" from-port="0" to-layer="289" to-port="604"/>
        <edge from-layer="254" from-port="530" to-layer="290" to-port="606"/>
        <edge from-layer="290" from-port="607" to-layer="291" to-port="608"/>
        <edge from-layer="291" from-port="609" to-layer="292" to-port="610"/>
        <edge from-layer="254" from-port="530" to-layer="293" to-port="612"/>
        <edge from-layer="293" from-port="613" to-layer="294" to-port="614"/>
        <edge from-layer="294" from-port="615" to-layer="295" to-port="616"/>
        <edge from-layer="254" from-port="530" to-layer="296" to-port="618"/>
        <edge from-layer="0" from-port="0" to-layer="296" to-port="619"/>
        <edge from-layer="257" from-port="536" to-layer="297" to-port="621"/>
        <edge from-layer="264" from-port="551" to-layer="297" to-port="622"/>
        <edge from-layer="271" from-port="566" to-layer="297" to-port="623"/>
        <edge from-layer="278" from-port="581" to-layer="297" to-port="624"/>
        <edge from-layer="285" from-port="596" to-layer="297" to-port="625"/>
        <edge from-layer="292" from-port="611" to-layer="297" to-port="626"/>
        <edge from-layer="260" from-port="542" to-layer="298" to-port="628"/>
        <edge from-layer="267" from-port="557" to-layer="298" to-port="629"/>
        <edge from-layer="274" from-port="572" to-layer="298" to-port="630"/>
        <edge from-layer="281" from-port="587" to-layer="298" to-port="631"/>
        <edge from-layer="288" from-port="602" to-layer="298" to-port="632"/>
        <edge from-layer="295" from-port="617" to-layer="298" to-port="633"/>
        <edge from-layer="261" from-port="545" to-layer="299" to-port="635"/>
        <edge from-layer="268" from-port="560" to-layer="299" to-port="636"/>
        <edge from-layer="275" from-port="575" to-layer="299" to-port="637"/>
        <edge from-layer="282" from-port="590" to-layer="299" to-port="638"/>
        <edge from-layer="289" from-port="605" to-layer="299" to-port="639"/>
        <edge from-layer="296" from-port="620" to-layer="299" to-port="640"/>
        <edge from-layer="298" from-port="634" to-layer="300" to-port="642"/>
        <edge from-layer="300" from-port="643" to-layer="301" to-port="644"/>
        <edge from-layer="301" from-port="645" to-layer="302" to-port="646"/>
        <edge from-layer="297" from-port="627" to-layer="303" to-port="648"/>
        <edge from-layer="302" from-port="647" to-layer="303" to-port="649"/>
        <edge from-layer="299" from-port="641" to-layer="303" to-port="650"/>
        <edge from-layer="1" from-port="2" to-layer="4" to-port="7"/>
        <edge from-layer="6" from-port="12" to-layer="9" to-port="17"/>
        <edge from-layer="10" from-port="20" to-layer="13" to-port="25"/>
        <edge from-layer="15" from-port="30" to-layer="18" to-port="35"/>
        <edge from-layer="19" from-port="38" to-layer="22" to-port="43"/>
        <edge from-layer="23" from-port="46" to-layer="26" to-port="51"/>
        <edge from-layer="27" from-port="54" to-layer="30" to-port="59"/>
        <edge from-layer="31" from-port="62" to-layer="34" to-port="67"/>
        <edge from-layer="35" from-port="70" to-layer="38" to-port="75"/>
        <edge from-layer="40" from-port="80" to-layer="43" to-port="85"/>
        <edge from-layer="45" from-port="93" to-layer="48" to-port="98"/>
        <edge from-layer="49" from-port="101" to-layer="52" to-port="106"/>
        <edge from-layer="53" from-port="109" to-layer="56" to-port="114"/>
        <edge from-layer="57" from-port="117" to-layer="60" to-port="122"/>
        <edge from-layer="61" from-port="125" to-layer="64" to-port="130"/>
        <edge from-layer="65" from-port="133" to-layer="68" to-port="138"/>
        <edge from-layer="70" from-port="143" to-layer="73" to-port="148"/>
        <edge from-layer="75" from-port="156" to-layer="78" to-port="161"/>
        <edge from-layer="79" from-port="164" to-layer="82" to-port="169"/>
        <edge from-layer="83" from-port="172" to-layer="86" to-port="177"/>
        <edge from-layer="87" from-port="180" to-layer="90" to-port="185"/>
        <edge from-layer="91" from-port="188" to-layer="94" to-port="193"/>
        <edge from-layer="97" from-port="202" to-layer="100" to-port="207"/>
        <edge from-layer="101" from-port="210" to-layer="104" to-port="215"/>
        <edge from-layer="105" from-port="218" to-layer="108" to-port="223"/>
        <edge from-layer="109" from-port="226" to-layer="112" to-port="231"/>
        <edge from-layer="113" from-port="234" to-layer="116" to-port="239"/>
        <edge from-layer="117" from-port="242" to-layer="120" to-port="247"/>
        <edge from-layer="122" from-port="252" to-layer="125" to-port="257"/>
        <edge from-layer="127" from-port="265" to-layer="130" to-port="270"/>
        <edge from-layer="131" from-port="273" to-layer="134" to-port="278"/>
        <edge from-layer="135" from-port="281" to-layer="138" to-port="286"/>
        <edge from-layer="139" from-port="289" to-layer="142" to-port="294"/>
        <edge from-layer="143" from-port="297" to-layer="146" to-port="302"/>
        <edge from-layer="147" from-port="305" to-layer="150" to-port="310"/>
        <edge from-layer="152" from-port="315" to-layer="155" to-port="320"/>
        <edge from-layer="157" from-port="328" to-layer="160" to-port="333"/>
        <edge from-layer="161" from-port="336" to-layer="164" to-port="341"/>
        <edge from-layer="165" from-port="344" to-layer="168" to-port="349"/>
        <edge from-layer="169" from-port="352" to-layer="172" to-port="357"/>
        <edge from-layer="173" from-port="360" to-layer="176" to-port="365"/>
        <edge from-layer="177" from-port="368" to-layer="180" to-port="373"/>
        <edge from-layer="182" from-port="378" to-layer="185" to-port="383"/>
        <edge from-layer="187" from-port="391" to-layer="190" to-port="396"/>
        <edge from-layer="191" from-port="399" to-layer="194" to-port="404"/>
        <edge from-layer="195" from-port="407" to-layer="198" to-port="412"/>
        <edge from-layer="199" from-port="415" to-layer="202" to-port="420"/>
        <edge from-layer="203" from-port="423" to-layer="206" to-port="428"/>
        <edge from-layer="207" from-port="431" to-layer="210" to-port="436"/>
        <edge from-layer="212" from-port="441" to-layer="215" to-port="446"/>
        <edge from-layer="217" from-port="454" to-layer="220" to-port="459"/>
        <edge from-layer="221" from-port="462" to-layer="224" to-port="467"/>
        <edge from-layer="225" from-port="470" to-layer="228" to-port="475"/>
        <edge from-layer="229" from-port="478" to-layer="232" to-port="483"/>
        <edge from-layer="233" from-port="486" to-layer="236" to-port="491"/>
    </edges>
</net>
